src/resources/models_and_scalers/aero_model.pt (torch, 79023 bytes, 5 tensors)

weight f4 [128, 16]
0.24049301 -0.14788663 0.2770153 -0.006290931 0.055352017 -0.020187434 -0.009124488 -0.09739804
-0.067466415 0.06531073 -0.080408946 0.0035794955 -0.11040174 -0.18415965 -0.11496564 -0.11447046
-0.101314485 0.13754693 -0.008398422 0.09528812 -0.04760486 0.00308987 0.005520742 0.010581617
0.07360622 -0.13712297 0.08255648 0.13992524 -0.16481243 -0.05412504 0.079990424 0.16103376
0.10675183 -0.008887186 0.11685842 -0.1314923 -0.05339389 -0.032562215 -0.002308732 -0.037718177
-0.0626224 0.035548467 -0.172912 -0.2415539 0.12194341 0.107011475 -0.028539315 -0.05592631
0.4639889 -0.07082912 0.10319992 -0.17556535 0.019881332 -0.013966926 -0.03938575 -0.022702621
-0.16969377 -0.20654184 -0.19417246 0.22264211 0.25806743 -0.18309948 0.02930766 0.18576756
-0.12014834 0.010371886 -0.07637495 0.35190132 0.077442646 -0.05119616 -0.09260601 0.07868812
-0.027669616 -0.012698285 0.063173406 -0.13321452 0.21398523 -0.050514728 -0.18312971 0.022418166
0.16742603 -0.14083041 0.15534301 0.023391103 0.009436652 0.1527708 -0.06052717 -0.045162845
0.04590062 0.0012871068 -0.122508705 -0.12652667 0.1103102 -0.26541084 -0.07153903 0.056483407
0.114459984 0.14826314 -0.10095509 -0.1635041 0.04752926 0.07811421 -0.011108261 -0.022356084
-0.05201112 -0.11638852 0.17143619 0.014282618 -0.30571294 -0.15124951 -0.0321322 0.20430596
-0.17243725 0.1940173 -0.19451755 -0.09738059 0.1099528 -0.027395053 0.0011101174 0.09161855
-0.0045135748 -0.020127738 0.028736094 -0.081218585 0.14836986 0.20823395 0.1709759 -0.00025276496
-0.10662387 -0.040828764 -0.15653723 0.049733765 0.04222352 -0.023765499 0.05391385 -0.006417818
0.07585963 0.1196769 0.05956902 0.09706397 -0.043871585 -0.0023888303 0.11425171 -0.17706773
-0.26339167 -0.0196357 -0.09861143 0.09271272 -0.006888267 -0.08021845 0.03998802 -0.040471245
0.031975016 -0.07996904 0.05719295 -0.04008503 0.07320645 0.048751045 0.008015183 0.025841588
-0.09911212 0.17200562 -0.030212834 -0.07614135 -0.044419687 -0.0015037354 -0.044219527 -0.029638771
-0.05236012 -0.05559898 0.071802095 -0.0591522 0.18429697 0.08625971 0.041868962 0.0814001
-0.23561478 0.12745485 -0.051441275 0.002642798 0.091776766 0.01273427 0.011412387 0.08654944
-0.028816355 0.029341608 0.022459142 -0.09295337 0.2531333 0.006402818 0.08361452 0.020820778
-0.11204148 0.019157067 -0.13191862 -0.007243071 0.023549037 -0.013076021 0.019741524 0.018804746
0.09252452 -0.056169014 0.11591529 -0.056715384 0.014116562 0.10883163 0.088513486 0.063452445
-0.19239847 0.016611887 -0.12162294 0.08484555 -0.027178159 0.01441559 0.049594615 0.044078413
0.054831702 -0.017915016 0.05717134 -0.008802831 0.15712538 0.04191711 -0.047357757 -0.0032618318
-0.09146594 0.13142017 -0.10102811 0.023258336 -0.00800002 -0.0344521 0.10834664 0.004205261
0.10200361 0.124439545 0.06996697 -0.06191544 0.02866795 0.062000584 0.1375729 -0.09420123
0.02560972 0.29130787 -0.039749738 -0.29843622 0.00679497 -0.013959807 -0.051878806 -0.10121693
-0.10714689 -0.019355394 -0.068919905 0.10408052 0.09380838 0.1321021 0.021323152 -0.025352368
00000000: cd43 763e 986f 17be f3d4 8d3e 2724 cebb
00000010: ccb8 623d 1e60 a5bc e07e 15bc a078 c7bd
00000020: d52b 8abd a2c1 853d 72ad a4bd f895 6a3b
00000030: 4f1a e2bd 5994 3cbe 1b73 ebbd 7d6f eabd
00000040: f87d cfbd 1ad9 0c3e 8999 09bc 6b26 c33d
00000050: 50fd 42bd 6b7f 4a3b 57e7 b43b 855e 2d3c
00000060: dcbe 963d f769 0cbe 5f13 a93d 9048 0f3e
00000070: 97c4 28be 38b2 5dbd 05d2 a33d 09e6 243e
00000080: b4a0 da3d 8f9b 11bc 7853 ef3d eba5 06be
00000090: 8db3 5abd f55f 05bd 184e 17bb 607e 1abd
000000a0: 2c40 80bd 459b 113d d80f 31be e859 77be
000000b0: 77bd f93d d528 db3d 48cb e9bc fd12 65bd
000000c0: f48f ed3e dc0e 91bd 7b5a d33d 67c7 33be
000000d0: 2dde a23c 89d5 64bc f452 21bd d9fa b9bc
000000e0: 34c4 2dbe b47f 53be 25d5 46be 4bfc 633e
000000f0: 6a21 843e 6e7e 3bbe 9e16 f03c da39 3e3e
00000100: 5510 f6bd d8ee 293c 786a 9cbd 692c b43e
00000110: 409a 9e3d 11b3 51bd 38a8 bdbd 3d27 a13d
00000120: 64ab e2bc 780c 50bc 0f61 813d 6369 08be
00000130: f21e 5b3e 88e8 4ebd 5b86 3bbe 4da6 b73c
00000140: bb71 2b3e d935 10be 3d12 1f3e b39e bf3c
00000150: 309c 1a3c f36f 1c3e 56eb 77bd adfc 38bd
00000160: 4a02 3c3d 23b4 a83a d8e5 fabd 3590 01be
00000170: 50ea e13d eee3 87be 0e83 92bd 255b 673d
00000180: ff69 ea3d 4bd2 173e 8bc1 cebd 9e6d 27be
00000190: 0bae 423d 58fa 9f3d 6cff 35bc 1b24 b7bc
000001a0: 9d09 55bd 1b5d eebd f88c 2f3e a401 6a3c
000001b0: 6886 9cbe 27e1 1abe 0e9d 03bd 9535 513e
000001c0: 6493 30be 79ac 463e 9c2f 47be 7a6f c7bd
000001d0: ef2e e13d 976b e0bc 5c81 913a 82a2 bb3d
000001e0: 9ce6 93bb ede2 a4bc f567 eb3c ee55 a6bd
000001f0: 45ee 173e 483b 553e 4e14 2f3e 8a85 84b9
00000200: 9e5d dabd 103c 27bd 4c4b 20be a2b5 4b3d
00000210: 92f2 2c3d ddaf c2bc c5d4 5c3d 8f4c d2bb
00000220: 4b5c 9b3d 2a19 f53d a5fe 733d 7ac9 c63d
00000230: b1b2 33bd ec8d 1cbb cdfc e93d 3e51 35be
00000240: 46db 86be 0cdb a0bc caf4 c9bd 2be0 bd3d
00000250: f9b6 e1bb 9249 a4bd 7aca 233d 2dc5 25bd
00000260: 3cf8 023d cfc6 a3bd 2843 6a3d 3330 24bd
00000270: 43ed 953d 2daf 473d 1d52 033c bdb1 d33c
00000280: 4cfb cabd 3e22 303e e880 f7bc ffef 9bbd
00000290: 6bf1 35bd fd18 c5ba 891f 35bd 02cd f2bc
000002a0: 9177 56bd c2bb 63bd fa0c 933d 9449 72bd
000002b0: 58b8 3c3e eea8 b03d ca7e 2b3d 18b5 a63d
000002c0: 0045 71be 8683 023e 16b4 52bd cb32 2d3b
000002d0: 75f5 bb3d 66a3 503c 05fb 3a3c d540 b13d
000002e0: 4710 ecbc d05d f03c 3cfc b73c 565e bebd
000002f0: b09a 813e bbce d13b 173e ab3d 5690 aa3c
00000300: 0176 e5bd 48ef 9c3c ad15 07be 4957 edbb
00000310: e9e9 c03c cf3c 56bc fab8 a13c 690c 9a3c
00000320: 7f7d bd3d 7b11 66bd ff64 ed3d 644e 68bd
00000330: 2749 673c 1ee3 de3d 8f46 b53d 5bf3 813d
00000340: 1b04 45be a715 883c 7315 f9bd 81c3 ad3d
00000350: bba4 debc 5e2f 6c3c b923 4b3d 918b 343d
00000360: 3597 603d 83c2 92bc 7f2c 6a3d c039 10bc
00000370: 7ae5 203e 47b1 2b3d 35fa 41bd 75c4 55bb
00000380: 7f52 bbbd 0293 063e d3e7 cebd 4488 be3c
00000390: 8412 03bc a51d 0dbd d8e4 dd3d 49cc 893b
000003a0: 45e7 d03d 29da fe3d d84a 8f3d 0b9b 7dbd
000003b0: 0cd9 ea3c 53f4 7d3d e9df 0c3e 93ec c0bd
000003c0: 7acb d13c 4e26 953e 9fd0 22bd a2cc 98be
000003d0: 57a8 de3b adb7 64bc df7e 54bd d24a cfbd
000003e0: d46f dbbd 348f 9ebc e125 8dbd 2b28 d53d
000003f0: 9c1e c03d c645 073e e4ad ae3c c5af cfbc

bias f4 [128]
-0.012206208 0.12433325 0.08567996 -0.5194035 -0.001142467 -0.12970217 -0.54316163 0.0216351
0.23921405 -0.27261716 0.10396482 0.054897927 0.056906383 -0.027005153 0.07076428 -0.6472976
-0.0035387136 0.109579444 0.11858863 -0.030869635 -0.21295421 0.02501608 -0.59921896 -0.06839868
-0.65619963 0.061476767 0.108210616 -0.04362018 0.039052896 -0.92052656 -0.043788858 -0.20194317
-0.47996697 -0.07469744 -0.20625035 0.011654464 -0.57994485 0.13458699 0.08908697 -0.2036204
-0.13789164 -0.019304916 -0.05662639 -0.6547358 -0.40174952 0.14117704 0.22103302 -0.91824245
0.04869708 0.026845675 0.06647331 0.040999055 0.05110094 -0.033641122 -0.034741204 0.26205784
0.04610656 0.0135456165 -0.5871001 0.037060022 0.19469975 0.14997336 -0.91052425 0.08258222
0.012114258 0.0653971 -0.0051703895 -0.295431 0.022862041 -0.51810044 0.10592569 -0.0343521
-0.35680974 -0.22424261 -0.1634023 0.2469258 0.14100994 -0.8064199 -0.8758604 -0.57824165
0.0910759 -0.06075289 0.2448457 -0.38365343 -0.7735521 -0.018409852 0.14683068 -0.3750259
-0.011463646 -0.16395235 0.21726042 -0.006495586 0.12586038 0.057508357 0.059445888 0.050862785
-0.029207794 -0.07132428 -0.04959458 0.19447714 -0.63161683 -0.8272567 0.027967867 -0.3014459
0.0044676587 0.0061893803 0.20505124 -0.017973764 0.08416103 -0.07379795 -0.488671 -0.00069105526
0.088990234 0.08455009 -0.3264994 -0.57776994 -0.21350002 0.04223376 -0.554285 0.22104926
-0.12163779 -0.07554037 -0.7054912 -1.1541966 0.13241655 -0.3897647 0.20841052 -0.85866493
00000000: 8cfc 47bc 6ea2 fe3d fa78 af3d a1f7 04bf
00000010: d5be 95ba a5d0 04be a40c 0bbf 183c b13c
00000020: 87f4 743e 7a94 8bbe 82eb d43d a6dc 603d
00000030: ab16 693d e939 ddbc ddec 903d 4cb5 25bf
00000040: c3e9 67bb 306b e03d 98de f23d 51e2 fcbc
00000050: ab10 5abe 86ee cc3c 6a66 19bf 9b14 8cbd
00000060: b3fc 27bf 10cf 7b3d 879d dd3d 13ab 32bd
00000070: eef5 1f3d a1a7 6bbf f25b 33bd 31ca 4ebe
00000080: 3bbe f5be f9fa 98bd 4b33 53be 5df2 3e3c
00000090: 4477 14bf 2cd1 093e 3b73 b63d de81 50be
000000a0: 7733 0dbe 5825 9ebc 13f1 67bd c49c 27bf
000000b0: 1db2 cdbe b790 103e 7b56 623e f011 6bbf
000000c0: 9776 473d 76eb db3c 2923 883d a0ee 273d
000000d0: 384f 513d 46cb 09bd cb4c 0ebd 722c 863e
000000e0: 3bda 3c3d 6fee 5d3c 314c 16bf 40cc 173d
000000f0: 5f5f 473e 9e92 193e 1e18 69bf de20 a93d
00000100: e17a 463c eaee 853d 5f6c a9bb bb42 97be
00000110: 2d49 bb3c 3ba2 04bf 91ef d83d cab4 0cbd
00000120: c4af b6be db9f 65be ef52 27be 1eda 7c3e
00000130: e964 103e 8971 4ebf 6338 60bf a507 14bf
00000140: 0086 ba3d 06d8 78bd d5b8 7a3e 396e c4be
00000150: 8307 46bf 42d0 96bc c85a 163e 6503 c0be
00000160: 04d2 3bbc 20e3 27be 8479 5e3e edd8 d4bb
00000170: 8be1 003e e28d 6b3d 887d 733d 7f55 503d
00000180: 2f45 efbc 7712 92bd b023 4bbd 0425 473e
00000190: a4b1 21bf 18c7 53bf de1c e53c 1e57 9abe
000001a0: 7065 923b 49d0 ca3b f4f8 513e b73d 93bc
000001b0: 9e5c ac3d 6123 97bd 1633 fabe ef27 35ba
000001c0: 8340 b63d 9928 ad3d ee2a a7be bbe8 13bf
000001d0: c09f 5abe 4ffd 2c3d 9fe5 0dbf bd5a 623e
000001e0: 3c1d f9bd e9b4 9abd 129b 34bf b7bc 93bf
000001f0: 3498 073e 3d8f c7be 9169 553e 77d1 5bbf

weight f4 [128, 128]
-0.007848519 -0.098987214 -0.16633718 -0.08083689 -0.014793904 -0.07354872 -0.047489937 -0.052985214
-0.04092975 -0.0743628 -0.1078779 0.047643498 -0.095387444 0.016435986 -0.026651764 -0.038059458
-0.0137823345 -0.0984651 -0.045761593 0.0502267 -0.057299748 -0.13431449 -0.084347 -0.11565306
-0.019294977 -0.013356044 -0.0592188 -0.123831116 0.017464362 -0.07915231 -0.022374513 -0.054417778
-0.07931576 -0.0013841101 -1.8750612e-05 0.035951637 -0.05741699 -0.08030906 -0.07144284 -0.068027474
-0.05834365 -0.04823413 -0.06936943 -0.051058613 0.0048349174 -0.10768271 -0.018856077 0.011941335
-0.0709449 -0.025240064 -0.107705496 -0.12347639 -0.07150064 -0.09132064 0.0017440047 -0.12450121
-0.074915156 0.002629983 0.03649305 -0.045953877 -0.03910245 0.015531665 0.029600624 -0.020570196
0.0003227762 -0.067849584 -0.11760007 0.021649515 0.0281633 -0.103081174 -0.10235179 -0.011661547
0.016450277 0.0045381016 -0.0538833 -0.13386853 -0.15990835 -0.100383304 -0.05200498 -0.02411968
-0.0650137 -0.10042711 -0.13818963 -0.09963146 0.0119127855 -0.036682773 -0.0685233 0.009280752
-0.0812489 0.0083998395 0.05520533 -0.026384419 -0.000945039 -0.06857188 -0.089376494 -0.023196522
0.0073535405 -0.16716823 0.003345035 0.010904929 0.037245035 -0.036071785 -0.020325914 -0.072258025
-0.0018954239 -0.021139463 -0.11422644 0.009984711 -0.074732944 0.0131803835 -0.033175923 -0.044802602
-0.00535325 -0.020589212 -0.05102564 0.0043431027 0.009577876 -0.08331951 -0.072675996 -0.019750118
-0.114017695 -0.009629868 0.020637246 0.009816777 -0.075290434 -0.027367543 -0.09976596 0.046250083
-0.043364223 -0.024434783 0.013814168 -0.11378419 -0.33549982 -0.18780687 0.0013787218 -0.40438947
-0.67177814 -0.22590083 0.0009826684 -0.15939823 -0.26470774 -0.7448447 -0.06821038 0.030944996
-0.3195155 -0.34377113 -0.57776546 -0.16980204 0.08139215 -0.22090471 -0.19503619 0.17112657
0.19924638 -0.30596834 -0.4769852 -0.18302302 -0.52253276 -0.119721346 -0.27799368 0.4865069
0.19704837 -0.18958531 -0.17798272 -0.4725029 -0.21500564 -0.31561527 0.1363839 -0.31594783
-0.038434878 -0.2677596 -0.049795717 -0.025939872 -0.1979664 -0.6327223 -0.7154769 0.017503295
-0.64830565 -0.29559427 -0.44887605 0.08648048 -0.5171856 -0.047438443 -0.30259445 -0.7884863
-0.3473056 -0.3140042 -0.69891256 -0.3865938 -0.92631215 -0.7588956 -0.016614027 0.12351964
-0.28074044 -0.2000748 -0.13719715 0.059707727 -0.62408584 -0.115478076 -0.015369317 0.225126
-0.053614795 -0.3074397 -0.00041769407 -0.5000095 -0.015433657 -0.40771747 -0.21084023 -0.5764855
-0.45931867 -0.0971787 -0.9978058 -0.1721892 -0.115220405 -0.30391458 -0.40279227 -0.09247984
-0.261751 0.15974654 -0.2616071 -0.112844154 -0.01686635 -0.034020144 -0.26716444 -0.51485425
-0.1351548 0.019891938 -0.36785716 -0.4728397 0.039978616 -0.13798685 0.060746856 0.20185749
-0.10210138 0.009763607 -0.5958056 -0.3134297 -0.5298493 0.1614488 0.09054674 -0.2357713
-0.356594 -0.004202305 -0.17916405 -0.039352644 -0.013711422 -0.97673714 0.28608114 -0.5416608
0.02042332 -0.22189517 -0.21116221 -0.013131643 0.033439793 0.11047867 -0.46384642 -0.15977691
00000000: 1397 00bc cfb9 cabd 4b54 2abe d08d a5bd
00000010: 2162 72bc b6a0 96bd cf84 42bd 0607 59bd
00000020: f4a5 27bd 864b 98bd 17ef dcbd d425 433d
00000030: 7e5a c3bd c3a4 863c cd54 dabc 3ce4 1bbd
00000040: 4dcf 61bc 12a8 c9bd 8270 3bbd 83ba 4d3d
00000050: 24b3 6abd bd89 09be 1fbe acbd 83db ecbd
00000060: 8010 9ebc 4fd3 5abc 6a8f 72bd 2b9b fdbd
00000070: 6c11 8f3c 9b1a a2bd c14a b7bc 2de5 5ebd
00000080: 4d70 a2bd 076b b5ba a24a 9db7 0642 133d
00000090: 142e 6bbd 1479 a4bd a050 92bd fd51 8bbd
000000a0: c0f9 6ebd 2791 45bd 8f11 8ebd d622 51bd
000000b0: 3a6e 9e3b c188 dcbd 0f78 9abc 97a5 433c
000000c0: 8f4b 91bd 40c4 cebc b394 dcbd 31e1 fcbd
000000d0: ed6e 92bd 5106 bbbd 1697 e43a 7efa febd
000000e0: 1e6d 99bd cb5b 2c3b bd79 153d 223a 3cbd
000000f0: e429 20bd 8678 7e3c 027d f23c d482 a8bc
00000100: 4a3a a939 b9f4 8abd 4ed8 f0bd 535a b13c
00000110: b9b6 e63c 391c d3bd d19d d1bd 1310 3fbc
00000120: bbc2 863c 5bb4 943b bcb4 5cbd d514 09be
00000130: 04bf 23be c395 cdbd 2d03 55bd a396 c5bc
00000140: e725 85bd bbac cdbd 9581 0dbe 940b ccbd
00000150: d82d 433c ad40 16bd f255 8cbd 4c0e 183c
00000160: d365 a6bd 7b9f 093c fc1e 623d 2324 d8bc
00000170: 7ebc 77ba 6a6f 8cbd 060b b7bd a206 bebc
00000180: f8f5 f03b 262e 2bbe 6038 5b3b 96aa 323c
00000190: 408e 183d 02c0 13bd 8882 a6bc 04fc 93bd
000001a0: df6f f8ba ab2c adbc 8def e9bd ea96 233c
000001b0: 960d 99bd 89f2 573c 7ae3 07bd ef82 37bd
000001c0: 516a afbb b5aa a8bc 4300 51bd 9650 8e3b
000001d0: 86ec 1c3c 6ba3 aabd 27d7 94bd 00cb a1bc
000001e0: 1c82 e9bd 98c6 1dbc 710f a93c 8cd6 203c
000001f0: df31 9abd e631 e0bc 1852 ccbd ba70 3d3d
00000200: af9e 31bd 742b c8bc d254 623c af07 e9bd
00000210: a2c6 abbe 7250 40be 3ab6 b43a 230c cfbe
00000220: a7f9 2bbf 8c52 67be e1cc 803a 4a39 23be
00000230: c687 87be 24ae 3ebf e2b1 8bbd 5c80 fd3c
00000240: 8997 a3be c502 b0be 70e8 13bf 96e0 2dbe
00000250: edb0 a63d d834 62be 91b7 47be ce3b 2f3e
00000260: 3e07 4c3e e2a7 9cbe 6737 f4be 636a 3bbe
00000270: b5c4 05bf 7730 f5bd 3055 8ebe 6f17 f93e
00000280: 0cc7 493e a722 42be 1a41 36be e6eb f1be
00000290: 702a 5cbe 5398 a1be 39a8 0b3e eac3 a1be
000002a0: e46d 1dbd c917 89be 98f6 4bbd db7f d4bc
000002b0: b4b7 4abe 17fa 21bf 7e29 37bf 1263 8f3c
000002c0: 5cf7 25bf 2258 97be 15d3 e5be ae1c b13d
000002d0: 4766 04bf d04e 42bd a9ed 9abe 3dda 49bf
000002e0: 0ad2 b1be 29c5 a0be efeb 32bf 9fef c5be
000002f0: cb22 6dbf fb46 42bf 241a 88bc ddf7 fc3d
00000300: 36bd 8fbe 69e0 4cbe 697d 0cbe 1790 743d
00000310: 17c4 1fbf c57f ecbd 96cf 7bbc 6e87 663e
00000320: 309b 5bbd bd68 9dbe f3fd dab9 9f00 00bf
00000330: 73dd 7cbc 58c0 d0be 80e6 57be 8e94 13bf
00000340: d12b ebbe a005 c7bd 3370 7fbf 5e52 30be
00000350: adf8 ebbd b19a 9bbe ca3a cebe 1266 bdbd
00000360: 3a04 86be 9994 233e 5ef1 85be d61a e7bd
00000370: 4d2b 8abc b558 0bbd c7c9 88be 7dcd 03bf
00000380: 0566 0abe 6bf4 a23c c657 bcbe 0c18 f2be
00000390: 9ec0 233d 6d4c 0dbe b2d1 783d bbb3 4e3e
000003a0: 871a d1bd 89f7 1f3c b786 18bf dc79 a0be
000003b0: 34a4 07bf d652 253e 9270 b93d 086e 71be
000003c0: 7d93 b6be 7db3 89bb c876 37be 3d30 21bd
000003d0: dfa5 60bc 720b 7abf 3a79 923e 48aa 0abf
000003e0: ce4e a73c 7d38 63be e83a 58be 1a26 57bc
000003f0: 2af8 083d a442 e23d 477d edbe 8f9c 23be

bias f4 [128]
-0.08236767 0.22064343 -0.14823195 1.0572858 1.3030579 1.1772754 1.0810177 0.08288256
0.11998862 0.030403165 0.7832511 0.94848293 0.2517852 1.0687097 0.29754823 0.22165284
-0.04412492 1.0641615 1.3072653 -0.086751014 -0.15472116 -0.13960165 0.15531617 1.1023269
0.99739486 1.0635756 1.2377096 0.20141149 0.010668675 0.99988097 1.0572811 1.1039013
1.1702666 0.06961823 1.033511 1.0392537 1.0735593 1.2049576 1.1215028 0.0182187
0.30153465 1.1092695 0.99517554 -0.021720417 1.0635585 0.95560724 0.0010551474 0.2442402
1.0070539 0.5786337 1.0101614 1.0741549 1.035424 1.1470236 1.2721996 0.9978926
-0.08708931 1.0108994 0.22483996 -0.06573335 1.075608 1.2373003 1.2153027 -0.033718616
0.2601847 1.0255044 1.0579063 1.1266218 0.044061184 0.37895954 0.48017365 -0.13324225
1.0840654 1.1472485 1.0680461 0.16815023 1.350725 -0.088566124 -0.12588747 -0.116876245
1.0504239 0.948341 1.1018457 -0.084973745 1.2068248 -0.060249917 -0.14209677 0.289997
1.2419188 1.1418518 0.14813268 0.23777911 1.0348377 1.0541184 -0.06559843 -0.056854576
0.25806886 1.0026864 1.1137964 1.0531127 0.07128564 1.037178 1.2715204 0.13982499
-0.10619897 -0.09547862 0.21440147 1.3681029 -0.11596912 1.0436445 -0.07469934 -0.3158183
1.2273928 1.0091833 1.1538471 0.97151905 1.1201466 1.1530548 0.9355389 1.0127628
0.9698152 0.25444806 0.9482614 -0.17761056 -0.1064681 -0.030783802 1.0910143 1.1545104
00000000: 62b0 a8bd 5af0 613e 1eca 17be 2455 873f
00000010: 9aca a63f f6b0 963f ca5e 8a3f 55be a93d
00000020: 98bc f53d 0f10 f93c 2583 483f c7cf 723f
00000030: fde9 803e 7bcb 883f 3e58 983e f6f8 623e
00000040: 55bc 34bd 7236 883f 7854 a73f 84aa b1bd
00000050: 396f 1ebe bcf3 0ebe 340b 1f3e 0c19 8d3f
00000060: 4555 7f3f 3f23 883f 456d 9e3f d03e 4e3e
00000070: abcb 2e3c 33f8 7f3f fd54 873f a34c 8d3f
00000080: 4ccb 953f 0194 8e3d 174a 843f 4406 853f
00000090: 646a 893f 0d3c 9a3f 678d 8f3f 623f 953c
000000a0: c062 9a3e 8bfc 8d3f d3c3 7e3f 04ef b1bc
000000b0: af22 883f ada2 743f df4c 8a3a 1a1a 7a3e
000000c0: 24e7 803f 5721 143f f84c 813f e87d 893f
000000d0: c688 843f abd1 923f 70d7 a23f e475 7f3f
000000e0: e15b b2bd 2765 813f 723c 663e 359f 86bd
000000f0: 86ad 893f db5f 9e3f 0a8f 9b3f 881c 0abd
00000100: ee36 853e ba43 833f 7969 873f 2535 903f
00000110: 8079 343d fc06 c23e 52d9 f53e a870 08be
00000120: a8c2 8a3f 0ad9 923f bcb5 883f 932f 2c3e
00000130: 8fe4 ac3f 2862 b5bd a5e8 00be d05c efbd
00000140: 4a74 863f 7ac6 723f 4809 8d3f b706 aebd
00000150: 3c79 9a3f 9ec8 76bd d181 11be 7d7a 943e
00000160: 32f7 9e3f 3328 923f 18b0 173e 5e7c 733e
00000170: 9075 843f 5aed 863f 7858 86bd 58e0 68bd
00000180: 9a21 843e 0758 803f e190 8e3f 66cc 863f
00000190: 35fe 913d 40c2 843f 2ec1 a23f 482e 0f3e
000001a0: d87e d9bd 4b8a c3bd 0f8c 5b3e ff1d af3f
000001b0: 3881 edbd 2596 853f f8fb 98bd f0b2 a1be
000001c0: 351b 9d3f eb2c 813f 43b1 933f 79b5 783f
000001d0: f760 8f3f 4d97 933f 7a7f 6f3f 36a2 813f
000001e0: cf45 783f 0447 823e 42c1 723f 8bdf 35be
000001f0: f20b dabd 502e fcbc 5ba6 8b3f ffc6 933f

weight f4 [1, 128]
-0.027315807 -0.43863213 -0.00094237714 0.12682992 0.17158653 0.12066903 0.1273003 -0.37404367
-0.26330915 -0.034515213 0.10406034 0.11248841 -0.5236292 0.12417816 -0.3873207 -0.3443566
0.007850604 0.13269784 0.15757155 -0.36953858 -0.027819606 -0.02540745 -0.41739875 0.12086055
0.12616475 0.12733492 0.14389063 -0.3580571 -0.2802956 0.11979937 0.12452814 0.117331736
0.12978856 -0.39279607 0.113667876 0.12680642 0.117474586 0.11361921 0.1290771 -0.017981675
-0.4320734 0.5217884 0.11742993 0.0015298001 0.12260515 0.12511693 -0.018677816 -0.5006664
0.1418507 0.09094568 0.11833813 0.12175591 0.11411277 0.11694483 0.24720852 0.12247839
-0.034590967 0.122611836 -0.32066223 0.010990956 0.112662174 0.28006437 0.12061906 -0.015860217
-0.57427984 0.13449304 0.114630654 0.13135275 -0.5086897 0.102929495 0.09281614 -0.026238611
0.10979616 0.160873 0.11626416 -0.45175868 0.27783784 -0.016312959 -0.05104332 0.028661935
0.12671024 0.12654433 0.12712894 -0.045661572 0.11131366 0.0074752523 0.011132096 -0.5876425
0.44223967 0.10655847 -0.3178759 -0.2877616 0.12842509 0.13584267 0.023844248 -0.0016971094
-0.4380942 0.12306864 0.13894191 0.11478154 -0.45061207 0.13694322 0.15653105 -0.49247357
-0.060321737 -0.13650736 -0.343826 0.16572663 -0.048413422 0.13160041 0.0052902736 -0.09519265
0.1201056 0.11566409 0.12719508 0.10971373 0.12563203 0.115400046 0.11960604 0.12446364
0.11666772 -0.42349598 0.11315094 -0.6162333 -0.020664304 0.012115063 0.1231901 0.11743221
00000000: 66c5 dfbc 6494 e0be dc09 77ba b4df 013e
00000010: 61b4 2f3e 5321 f73d 035b 023e a782 bfbe
00000020: 75d0 86be d35f 0dbd 961d d53d 5360 e63d
00000030: 900c 06bf 1f51 fe3d e64e c6be 824f b0be
00000040: d29f 003c f1e1 073e 705a 213e 2934 bdbe
00000050: f1e5 e3bc 4923 d0bc 4ab5 d5be bc85 f73d
00000060: 5531 013e 1664 023e 1158 133e 4353 b7be
00000070: e882 8fbe 5f59 f53d 9c08 ff3d 9f4b f03d
00000080: 4be7 043e 911c c9be b4ca e83d 8bd9 013e
00000090: 8496 f03d 30b1 e83d ca2c 043e 4e4e 93bc
000000a0: ba38 ddbe ed93 053f 1a7f f03d 9383 c83a
000000b0: 6918 fb3d a71e 003e 3802 99bc ac2b 00bf
000000c0: 4f41 113e bb41 ba3d 435b f23d 2a5b f93d
000000d0: f5b3 e93d c580 ef3d 3b24 7d3e f3d5 fa3d
000000e0: 42af 0dbd ea1b fb3d d72d a4be 6913 343c
000000f0: 6dbb e63d 9964 8f3e 2007 f73d 49ed 81bc
00000100: 0104 13bf 8bb8 093e 7ac3 ea3d 5681 063e
00000110: 7d39 02bf b3cc d23d 6316 be3d 5bf2 d6bc
00000120: cfdc e03d e4bb 243e e71b ee3d ea4c e7be
00000130: c340 8e3e c1a2 85bc cd12 51bd 6fcc ea3c
00000140: 54c0 013e d694 013e 172e 023e a107 3bbd
00000150: 6bf8 e33d f6f2 f43b 6563 363c bd6f 16bf
00000160: 3d6d e23e 543b da3d a1c0 a2be 7d55 93be
00000170: de81 033e 571a 0b3e 0355 c33c 8b71 deba
00000180: e24d e0be 690b fc3d ca46 0e3e 9612 eb3d
00000190: a0b6 e6be d83a 0c3e ad49 203e 7f25 fcbe
000001a0: ed13 77bd 96c8 0bbe f609 b0be 3eb4 293e
000001b0: 274d 46bd 42c2 063e 085a ad3b 5df4 c2bd
000001c0: edf9 f53d 4be1 ec3d 6d3f 023e 98b1 e03d
000001d0: afa5 003e dc56 ec3d 03f4 f43d cbe6 fe3d
000001e0: 7cef ee3d 77d4 d8be aebb e73d 77c1 1dbf
000001f0: 3048 a9bc 427e 463c 174b fc3d 4c80 f03d
