src/resources/models_and_scalers/structural_model.pt (torch, 179423 bytes, 6 tensors)

weight f4 [256, 39]
0	0x3dfaafdb	0.12240573
1	0x3e4b065b	0.19826643
2	0x3e3b153d	0.1826982
3	0xbe0c69e9	-0.13712277
4	0x3dd6b6d5	0.10484091
5	0x3e4ceb65	0.20011671
6	0x3e0a5921	0.13510562
7	0xbdc01a0d	-0.09379969
8	0x3cce6c6e	0.025198188
9	0xbe90691e	-0.28205198
10	0xbd1a86a9	-0.03772608
11	0xbe89eed9	-0.2694004
12	0x3c9be496	0.019029897
13	0xbf012898	-0.50452566
14	0x3e0c8096	0.13720927
15	0x3dc46e2b	0.09591325
16	0x3ea6f13d	0.32605925
17	0xbc9864d3	-0.018602764
18	0x3db2df73	0.08734026
19	0x3d9314dd	0.07181714
20	0x3dbcebfe	0.092246994
21	0xbd336e38	-0.043806285
22	0xbea0f3c0	-0.31435966
23	0x3f2b5318	0.66923666
24	0x3d907fe5	0.07055644
25	0xbd9279a8	-0.0715211
26	0xbe9915bd	-0.29899397
27	0x3d8f5d55	0.070002235
28	0xbd0de943	-0.034646284
29	0xbe555d0b	-0.20836274
30	0xbc4aed74	-0.012385715
31	0x3e1d11a9	0.15338768
32	0x3e061a0f	0.13095878
33	0x3d865445	0.06559042
34	0xbb3547b8	-0.0027661156
35	0xbd1c8fef	-0.038223203
36	0x3e4eb1a9	0.2018496
37	0x3d7e9919	0.062157724
38	0x3e60c01c	0.21948284
39	0xbedd8475	-0.4326512
40	0x3f1cadae	0.61202514
41	0x3d6dee5b	0.05808864
42	0x3e9f4f70	0.31115294
43	0x3dda51c4	0.10660127
44	0x3cb2d01f	0.021827755
45	0xbad80805	-0.0016481882
46	0xbd0c6b24	-0.034281865
47	0xbd4bd014	-0.049758986
48	0xbcfa0ee0	-0.030524671
49	0xbd81d16b	-0.063387714
50	0xbd8eab05	-0.06966213
51	0x3e158332	0.14600828
52	0x3e25929b	0.16169207
53	0xbd710f60	-0.058852553
54	0x3dcafb55	0.09911219
55	0x3d53500a	0.051590003
56	0x3c88d399	0.01670246
57	0xbe068338	-0.13135993
58	0x3b44d1f4	0.0030032368
59	0xbd003d6d	-0.03130858
60	0xbddbbd79	-0.107294984
61	0xbce89f92	-0.028396402
62	0x3e449367	0.19196855
63	0xbd86d041	-0.0658269
64	0x3a8dfb89	0.001083241
65	0xbdcd3309	-0.100195
66	0x3e031cc8	0.12803948
67	0x3b9c8490	0.004776545
68	0xbc806569	-0.015673356
69	0x3d853dae	0.06505905
70	0xbead5167	-0.33851168
71	0xbee34a37	-0.4439256
72	0xbe17a1f5	-0.14807875
73	0xbd2cf76c	-0.042228147
74	0xbd86320f	-0.06552517
75	0xbec5dba0	-0.38644123
76	0xbe8d3d81	-0.27585986
77	0xbe7ce55c	-0.24696869
78	0x3e318ee2	0.17339662
79	0x3e69ef15	0.22845109
80	0xbe992f5c	-0.29918945
81	0x3e80a5de	0.25126547
82	0xbdf6802a	-0.12036164
83	0x3de4c641	0.111706264
84	0xbe67a4a6	-0.22621402
85	0xbd7cf78d	-0.06175952
86	0x3caecd18	0.02133803
87	0x3dcc96a5	0.09989671
88	0x3e49b4d2	0.19697884
89	0x3e90aea2	0.28258234
90	0xbea718d6	-0.32636136
91	0xbf2e76ff	-0.68150324
92	0xbe061fbf	-0.13098048
93	0xbe768684	-0.24074751
94	0x3f2dd0bc	0.6789663
95	0xbdc0936a	-0.09403117
96	0xbe8cee7c	-0.275257
97	0xbd59d019	-0.053176973
98	0x3e58f5ca	0.21187511
99	0xbdaa8f14	-0.08328071
100	0xbe35424b	-0.1770107
101	0xbe172fb2	-0.14764288
102	0xbe1bdfa6	-0.15222034
103	0xbd9679af	-0.07347428
104	0xbdde43fb	-0.1085281
105	0xbdcc70b8	-0.09982437
106	0x3e32d8a4	0.17465454
107	0xbe0189df	-0.1265025
108	0x3d8a8c0f	0.06764995
109	0xbe948dc0	-0.29014397
110	0x3e478c0e	0.1948702
111	0x3e33d262	0.17560723
112	0x3dff3d33	0.12462845
113	0x3e4dd3de	0.20100352
114	0xbd404de9	-0.0469493
115	0x3d267a28	0.04064384
116	0x3eb1ed0b	0.34751162
117	0xbe588532	-0.2114456
118	0x3f18935f	0.5959987
119	0xbe0db8a9	-0.13839974
120	0x3e9bcf5b	0.30431637
121	0xbe56b253	-0.20966463
122	0x3d2a0ab6	0.04151412
123	0xbe4b308a	-0.19842735
124	0xbdc729a8	-0.09724742
125	0x3f02c034	0.5107453
126	0xbed2e5da	-0.41190988
127	0x3e5ebadb	0.21750967
128	0x3e18385d	0.14865251
129	0xbdf0ae2a	-0.11751969
130	0xbdaad797	-0.08341902
131	0xbe023a22	-0.12717488
132	0xbe21565a	-0.15755597
133	0xbe762b46	-0.24039945
134	0xbd125b76	-0.035731755
135	0xbd5c0507	-0.053715732
136	0xbf2e0277	-0.6797251
137	0x3cd3edc8	0.025870219
138	0x3e011015	0.12603791
139	0xbee09401	-0.43862918
140	0xbe558819	-0.20852698
141	0xbc1e60b4	-0.0096666105
142	0xbe561a82	-0.2090855
143	0xbdbeaec9	-0.093106814
144	0xbe1f23bf	-0.1554098
145	0x3dd8f711	0.10593999
146	0x3df40e80	0.11916828
147	0xbdbdfc0a	-0.09276588
148	0xbd60f707	-0.054923084
149	0x3eda5a68	0.426471
150	0x3e2aa074	0.1666277
151	0xbed01cc6	-0.40646952
152	0xbd19574a	-0.03743676
153	0x3d969501	0.07352639
154	0xbde355f9	-0.11100382
155	0x3e8ee845	0.27911583
156	0x3eb9572b	0.36199316
157	0xb9e4c7eb	-0.000436365
158	0xbec68583	-0.38773736
159	0xbe9d66ae	-0.307424
160	0xbddc20d5	-0.1074845
161	0xbf079d00	-0.5297394
162	0x3e1892c4	0.14899737
163	0x3d2ac0e0	0.041687846
164	0x3d87d829	0.06633026
165	0x3e7bcd3b	0.24590008
166	0x3e04c4ea	0.12965742
167	0xbd4de227	-0.050264504
168	0x3eef8109	0.46778134
169	0xbea5686b	-0.32306227
170	0xbee8f900	-0.45502472
171	0x3e9ed661	0.31022933
172	0x3d006deb	0.031354826
173	0xbe99d71b	-0.30046925
174	0xbc17f9a7	-0.00927583
175	0x3e29dfc6	0.16589269
176	0xbe27ce06	-0.16387185
177	0xbe0a8f64	-0.13531262
178	0x3e0ec093	0.13940649
179	0xbeda0e3b	-0.42588982
180	0xbeb7b94a	-0.35883552
181	0xbe29118a	-0.16510597
182	0xbe60eca4	-0.21965271
183	0xbe00a2c2	-0.12562087
184	0xbf00f47f	-0.5037307
185	0xbd58e406	-0.052951835
186	0xbdf108e6	-0.11769275
187	0xbd316901	-0.04331303
188	0xbed695e1	-0.41911224
189	0x3de5903b	0.112091504
190	0x3e5c9700	0.21541977
191	0x3da63515	0.08115593
192	0xbe829a73	-0.2550846
193	0x3d327a47	0.043573644
194	0xbd2933ca	-0.041309156
195	0xbd599307	-0.05311873
196	0x3ef09638	0.46989608
197	0xbdd80482	-0.10547735
198	0xbf4432aa	-0.7663981
199	0xbf07b0b9	-0.5300403
200	0x3d09b44f	0.03361922
201	0x3cfe36db	0.031032017
202	0x3daeae15	0.08529297
203	0x3deefa1d	0.11668799
204	0x3a162d43	0.00057287904
205	0x3e26c01c	0.16284221
206	0xbebf6b44	-0.37386525
207	0x3e45cf36	0.19317326
208	0x3d0cfe51	0.034422223
209	0x3e796960	0.24356604
210	0x3cc067fd	0.023487085
211	0x3de8f651	0.11375106
212	0xbe1a5f82	-0.15075496
213	0xbea3247a	-0.31863767
214	0x3d4e54e3	0.050373923
215	0x3b375ead	0.0027980015
216	0x3d01a3a4	0.0316502
217	0xbd35610a	-0.044281997
218	0xbd99b385	-0.07504944
219	0xbe060bec	-0.13090485
220	0x3c7b71f0	0.015346989
221	0x3f600495	0.8750699
222	0x3f95aa92	1.1692679
223	0x3cd20004	0.025634773
224	0x3cd05b84	0.025434263
225	0x3c002784	0.007821921
226	0xbb96ee94	-0.0046060774
227	0xbdee23f3	-0.116279505
228	0x3dd218e2	0.10258652
229	0xbcaa8eba	-0.02082001
230	0xbcb8476e	-0.022494998
231	0x3ee78d75	0.4522511
232	0xbe3f6e76	-0.18694481
233	0xbe073ee0	-0.13207579
234	0x3e44e9e6	0.1922985
235	0x3ea43623	0.32072553
236	0xbeee0b9b	-0.4649323
237	0xbe651eec	-0.22375077
238	0x3dc1cbf0	0.09462726
239	0x3e5dcbbb	0.21659748
240	0x3d4af308	0.04954818
241	0x3d2b695c	0.041848525
242	0x3e6cf0d3	0.23138742
243	0xbc03c905	-0.008043532
244	0x3dc331d7	0.095309906
245	0x3da4c674	0.080456644
246	0x3e1bc35f	0.15211247
247	0x3e027657	0.12740456
248	0xbee694df	-0.45035455
249	0x3d9fdb58	0.078055084
250	0x3e1be375	0.15223487
251	0xbdf9ba29	-0.1219371
252	0xbdccd88a	-0.10002239
253	0xbdd8e2eb	-0.10590156
254	0x3d6d794e	0.057977013
255	0x3dbf4486	0.09339242

bias f4 [256]
0	0xbef34a9a	-0.47517854
1	0xbf1d90fc	-0.61549354
2	0xbf616894	-0.880502
3	0xbf7d4a97	-0.9894194
4	0xbf5a24dd	-0.852125
5	0xc0056959	-2.084555
6	0xbef0f0c0	-0.47058678
7	0xbe8d51de	-0.27601522
8	0xbf2fc21b	-0.68655556
9	0xbf29bc38	-0.66302824
10	0xbfced302	-1.6158144
11	0xbe7ea5f7	-0.24867998
12	0xbf42325c	-0.7585809
13	0xbfea05d2	-1.8283026
14	0xbf140443	-0.57819
15	0xbf54c98d	-0.8312004
16	0xbfbf8cbe	-1.4964826
17	0xbfb25eb2	-1.3935149
18	0xbf88787a	-1.0661767
19	0xbfedff06	-1.8593452
20	0xbe06734c	-0.1312992
21	0xbfb8e555	-1.4444987
22	0xbfdb9bcb	-1.7156919
23	0xc0039c43	-2.0564125
24	0xbeef3a6b	-0.46724257
25	0xbf7bb1fe	-0.9831847
26	0xbfdfa6d1	-1.7472783
27	0xc007aef5	-2.1200535
28	0xbfadbff7	-1.3574208
29	0xbf95ae17	-1.1693753
30	0xbf1fc36f	-0.62407583
31	0xbf8f6d5c	-1.1205249
32	0xbca3ad55	-0.019980112
33	0xbff7e7f8	-1.9367666
34	0xbfb0aefa	-1.3803399
35	0xbfb118f4	-1.383574
36	0xbf2119a5	-0.62929755
37	0xbfd858a8	-1.6902056
38	0xbf0fb1d3	-0.56130713
39	0xbfe40e6b	-1.78169
40	0xbf963d3a	-1.1737435
41	0xbf953d06	-1.1659248
42	0xc00580c0	-2.0859833
43	0xbfa04d55	-1.25236
44	0xbea137c8	-0.3148787
45	0xbfb8b38d	-1.4429795
46	0xbf8a55a2	-1.0807383
47	0xbe9b36cd	-0.30315247
48	0xbf9c9539	-1.2233039
49	0xbf1e3332	-0.6179687
50	0xbfd556fc	-1.666717
51	0xbeaf5325	-0.34243122
52	0xbf1bb1b4	-0.6081803
53	0xbff57b4f	-1.9178256
54	0xc003b7a0	-2.0580826
55	0xbfdd1f3e	-1.7275159
56	0xbf47a58d	-0.77986985
57	0x3d6f8b5d	0.058482517
58	0xbfce6ca6	-1.6126907
59	0xbf5e1e58	-0.8676505
60	0xbf889a09	-1.0672008
61	0xbfcf857f	-1.6212615
62	0xbf6ad9be	-0.917385
63	0xbf66609d	-0.8999117
64	0xbfbfa5ce	-1.4972475
65	0xbff0157e	-1.8756559
66	0xbfe92af2	-1.8216231
67	0xbf8ee584	-1.1163793
68	0xbf7abd22	-0.97944844
69	0xbf1b8048	-0.60742617
70	0xc004a6fd	-2.0726922
71	0xbf46288e	-0.7740563
72	0xbf2ce783	-0.6754076
73	0xbf452021	-0.7700215
74	0xbf8e2ed5	-1.1108042
75	0xbf311f4b	-0.69188374
76	0xbf9b8b53	-1.2151893
77	0xbf5fd2f1	-0.87431246
78	0xbf197e7a	-0.5995861
79	0xbfa2d7ed	-1.2722145
80	0xbf12a2c1	-0.5727959
81	0xbf1634ce	-0.58674324
82	0xbfa1793d	-1.2615124
83	0xbf01c6e9	-0.5069414
84	0xbdf02644	-0.117260486
85	0xbf1e1710	-0.6175394
86	0xbdb8d529	-0.09025032
87	0xbeb8a7e4	-0.3606559
88	0xbfcc440b	-1.5958265
89	0xbfed9f1e	-1.8564184
90	0xbfb53525	-1.4156843
91	0xbf8cf52d	-1.1012322
92	0xbf9ec6e7	-1.240445
93	0xbfbcd6d5	-1.4753062
94	0xbfa7c009	-1.310548
95	0xbf804c7d	-1.0023342
96	0xbf3de4e3	-0.7417738
97	0xbfe7edb8	-1.8119421
98	0xbe3e2b93	-0.1857131
99	0xbfbfb308	-1.4976511
100	0xbf24f2b1	-0.6443282
101	0xbf949d40	-1.1610489
102	0xbff2d427	-1.8970994
103	0xbf77a500	-0.96736145
104	0xbf581b9b	-0.8441712
105	0x3ed5f2c0	0.41786766
106	0xbede8212	-0.4345861
107	0xbd516c88	-0.051128894
108	0xbf544919	-0.8292404
109	0x3d97ac56	0.07405917
110	0xbe045f52	-0.12926987
111	0xbed2ef22	-0.4119807
112	0xbfb63109	-1.4233714
113	0xbfbce6c1	-1.475792
114	0xbec13508	-0.37735772
115	0xbe0f68a8	-0.14004767
116	0xbf518462	-0.81842625
117	0xbf0a5c4e	-0.54047096
118	0xbf817363	-1.0113338
119	0xbfb17435	-1.3863589
120	0xbf1422de	-0.57865703
121	0xbf2615e7	-0.6487717
122	0xbf15414a	-0.5830275
123	0xbea2647a	-0.31717283
124	0xbf2e27b4	-0.6802933
125	0xbfcd891c	-1.6057467
126	0xbf8937ec	-1.0720191
127	0xbfb42dc9	-1.4076473
128	0xbfbe0ef4	-1.4848313
129	0xbf5ebf95	-0.8701108
130	0xbf8c29c4	-1.0950246
131	0xbf93c97f	-1.1545867
132	0xbf08054b	-0.53133076
133	0xbf2beba6	-0.67156446
134	0xbf8e3a62	-1.1111567
135	0xbdef1a04	-0.11674884
136	0xbf42b1f3	-0.7605278
137	0xbf81c55e	-1.0138357
138	0xbfb82e3d	-1.4389111
139	0xbefde81d	-0.4959115
140	0xbfd49fed	-1.6611305
141	0xbf64113b	-0.8908879
142	0xbfc2fbcb	-1.5233091
143	0xbfe17d06	-1.7616279
144	0xbefe5794	-0.49676192
145	0xbfb7ac8b	-1.4349531
146	0xc00014b6	-2.001264
147	0xbfc63e26	-1.5487716
148	0xbf7a728a	-0.9783102
149	0xc0096691	-2.1468852
150	0xbfde04e2	-1.734524
151	0xbe93af43	-0.28844652
152	0xbf4487d6	-0.7676977
153	0xbf758d1e	-0.9591845
154	0xbf5b818b	-0.8574454
155	0xbf2e9a18	-0.6820388
156	0xbfc1901a	-1.5122101
157	0xbf3a2178	-0.7270732
158	0xbfc39270	-1.5279064
159	0xbfa83789	-1.3141948
160	0x3c9a1e17	0.018813176
161	0xbf2eaa5f	-0.68228716
162	0xbef556dd	-0.47917834
163	0xbe7307ad	-0.23733397
164	0xbf72b13e	-0.948017
165	0xbfde2829	-1.7356006
166	0xbf4eda73	-0.8080208
167	0xbf4492d2	-0.7678653
168	0xbfa90c1f	-1.3206824
169	0xbfd753ee	-1.6822488
170	0xbe6e8d50	-0.23296094
171	0xbfa473f6	-1.2847888
172	0xbfac1ab6	-1.3445652
173	0xbf8a60b0	-1.0810757
174	0xc00291c0	-2.0401459
175	0xbf130b0c	-0.5743873
176	0xbf5844be	-0.8447989
177	0xc00e81a4	-2.2266626
178	0xbfe34581	-1.7755586
179	0xbe8913cb	-0.26772913
180	0xbfb22a52	-1.3919165
181	0xbf82c43a	-1.0216134
182	0x3e342465	0.17592008
183	0xbf4ac194	-0.79201627
184	0xbf33c55d	-0.7022303
185	0xbf50b337	-0.8152346
186	0xbfcb779d	-1.5895878
187	0xbf9ebc5b	-1.2401232
188	0xbfa9659e	-1.3234136
189	0xbfe12e22	-1.7592204
190	0xbfc72d53	-1.5560707
191	0xbfa4a2ef	-1.2862223
192	0xbfee0d5f	-1.859783
193	0xbffb7fd7	-1.9648389
194	0xbf936d49	-1.1517726
195	0xbf44250c	-0.7661903
196	0xbffa884b	-1.9572843
197	0xbfd02b56	-1.6263225
198	0xbe56900f	-0.20953391
199	0xbf2a28fb	-0.6646878
200	0xbf22b787	-0.6356129
201	0xbf5d11c7	-0.8635525
202	0xbfaf24e0	-1.3683128
203	0xbfd94ef4	-1.697722
204	0xbf84f350	-1.0386753
205	0xbed59728	-0.41716886
206	0xbfbc34ec	-1.470365
207	0xbf3d29a9	-0.73891693
208	0xbebf6bce	-0.37386936
209	0xbe6862f1	-0.22693993
210	0xbee92f8f	-0.45544097
211	0xbf001e8a	-0.500466
212	0xbe815c41	-0.25265697
213	0xbf6e9366	-0.9319366
214	0xbf17688b	-0.59143895
215	0xbf2ee0ca	-0.6831175
216	0xbfd79645	-1.6842734
217	0xbf351a85	-0.7074359
218	0xbfd5d102	-1.6704409
219	0xbe12c85b	-0.14334242
220	0xc005a0cc	-2.0879393
221	0xbf95767c	-1.1676784
222	0xbe96e833	-0.2947403
223	0xbf3815f4	-0.719085
224	0xbeedd9d5	-0.46455255
225	0xbf8a3a21	-1.079899
226	0xbd71ce3d	-0.059034575
227	0xbf79c937	-0.97572654
228	0xbf3bbad5	-0.7333196
229	0xbf5927cd	-0.84826356
230	0xbf00c5d4	-0.5030186
231	0xbfbfbd5b	-1.4979662
232	0xbf65b9a0	-0.89736366
233	0xbf6c1214	-0.92215085
234	0xbfe8fcb5	-1.820212
235	0xbf6f3965	-0.9344695
236	0xbf208602	-0.6270448
237	0xbf6375d3	-0.8885166
238	0xbf7cf707	-0.98814434
239	0xbfec677c	-1.8469081
240	0xbf38e0c9	-0.72217995
241	0xbfc8d373	-1.5689529
242	0xbfd06acd	-1.6282593
243	0xbf68726a	-0.9079958
244	0xc0005094	-2.004918
245	0xbf713910	-0.94227695
246	0xbecc66c5	-0.39922157
247	0xbfa50ab3	-1.289389
248	0xbf4aa624	-0.7915976
249	0xbdc4d406	-0.09610753
250	0xbf68fe11	-0.91012675
251	0xbec4a4bb	-0.3840693
252	0xbed2ca05	-0.41169754
253	0xbf40b961	-0.75282866
254	0xbe81c046	-0.25342005
255	0xbf21258b	-0.6294791

weight f4 [128, 256]
0	0x3d0ce9c0	0.03440261
1	0xbeaa53a1	-0.3326693
2	0xbccd468e	-0.025058057
3	0xbda6215c	-0.081118315
4	0xbc37cc16	-0.0112180915
5	0xbd0df3d4	-0.03465636
6	0xbdc59365	-0.09647254
7	0xbdbaefe3	-0.09127786
8	0x3c94a3f0	0.018144578
9	0xbc2ad4cb	-0.01042671
10	0xbc49ff4c	-0.012328934
11	0x3d95f02c	0.073212
12	0x3b608b4e	0.003426272
13	0x3e8c315b	0.27381405
14	0xbd9ac5ab	-0.075572334
15	0x3dbd6b73	0.0924901
16	0x3d24d437	0.040241446
17	0xbd3d381f	-0.0461961
18	0x3dbb7dee	0.091548786
19	0x3de3648e	0.11103164
20	0xbd8b8bce	-0.06813775
21	0x3e134008	0.14379895
22	0x3d79274a	0.060828485
23	0xbe23664f	-0.15956996
24	0x3d9eac1b	0.0774767
25	0x3de1914a	0.1101404
26	0xbde4e498	-0.11176413
27	0x3d8d50aa	0.06900151
28	0x3d7ea161	0.06216562
29	0x3dbff363	0.09372594
30	0x3bf49798	0.0074643604
31	0xbbb630be	-0.0055600097
32	0xbd63694f	-0.055520352
33	0x3dfc68bf	0.12324666
34	0x3dc03095	0.09384266
35	0x3e106a27	0.14102994
36	0x3dd0f390	0.10202706
37	0xbf434449	-0.7627607
38	0x3ba1a7a3	0.004933314
39	0x3df5610d	0.119814016
40	0x3d6fee4d	0.05857687
41	0xbe04d75b	-0.12972777
42	0x3e116535	0.14198764
43	0xbe281321	-0.16413547
44	0x3d3d5500	0.04622364
45	0x3e29afb6	0.16570935
46	0x3c6207ad	0.013795775
47	0x3d0004bd	0.03125452
48	0x3d0995e4	0.033590212
49	0x3d81bad0	0.0633446
50	0x3e0d7ca7	0.13817082
51	0x3d3700bc	0.044678435
52	0x3d2373f3	0.0399055
53	0x3e2512c3	0.16120438
54	0xbdcb7e5b	-0.0993621
55	0xbe155fb5	-0.1458729
56	0xbe09af75	-0.13445838
57	0x3da16256	0.07880084
58	0x3e515c94	0.20445472
59	0xbca3f53d	-0.0200144
60	0x3e447844	0.19186503
61	0xbd84d0c5	-0.06485132
62	0xbe8617da	-0.26190072
63	0x3c808d31	0.015692325
64	0xbe5dc98b	-0.21658914
65	0x3c54812e	0.012970252
66	0x3e9e2a03	0.30891427
67	0xbe28f0dd	-0.16498132
68	0x3e17baf0	0.14817405
69	0xbe21bd13	-0.15794782
70	0x3ef37b29	0.475549
71	0xbd7446b7	-0.05963775
72	0xbe0ff326	-0.14057598
73	0xbda28b10	-0.0793668
74	0x3dcc5719	0.0997755
75	0x3d526b18	0.051371664
76	0x3d2f1c2f	0.042751487
77	0xbd50314e	-0.05082827
78	0x3ba10d6e	0.004914931
79	0x3c94bd2a	0.018156607
80	0x3d956c8e	0.07296096
81	0x3deab70c	0.11460695
82	0xbcbf7753	-0.023372328
83	0xbd94694a	-0.07246645
84	0xbdbb8c56	-0.09157626
85	0x3d8629a1	0.06550909
86	0x3d33ae51	0.043867413
87	0xbda8aba6	-0.08235864
88	0xbe129ae2	-0.14316896
89	0x3e6dcc83	0.23222546
90	0xbe4267ed	-0.18984957
91	0xbee4bbaa	-0.44674426
92	0x3dac16ac	0.08402762
93	0x3dc4ef13	0.09615912
94	0x3d0d3711	0.034476344
95	0xbda9c861	-0.08290172
96	0xbcc79916	-0.02436499
97	0xbeccffe7	-0.40038988
98	0x3d73d839	0.059532378
99	0x3d5725d2	0.052526303
100	0x3da5da60	0.08098292
101	0xbcf1acc2	-0.029501323
102	0x3e94d195	0.29066148
103	0x3cd59de3	0.026076263
104	0xbc6526f2	-0.013986336
105	0xbcda3d88	-0.026640669
106	0xbba7130c	-0.005098706
107	0x3dca86a8	0.09888965
108	0x3e0e34a4	0.13887268
109	0xbcbf6102	-0.023361687
110	0xbd3e6a99	-0.04648838
111	0x3dbaa6d4	0.09113851
112	0x3c910744	0.01770366
113	0xbe0aefd0	-0.13568044
114	0x3d57d52f	0.052693542
115	0xbc4d0cd9	-0.01251527
116	0xbc2f15c9	-0.010686346
117	0xbb126b24	-0.0022341693
118	0xbd2119a2	-0.039331086
119	0x3e015cee	0.12633106
120	0x3db12c0f	0.08650982
121	0x3d350364	0.044192687
122	0xbcdc7986	-0.026913416
123	0x3d8f7539	0.0700478
124	0xbe73345d	-0.23750444
125	0x3e7f4975	0.24930365
126	0xbdb1a3c9	-0.08673818
127	0x3d13af23	0.036055695
128	0x3e55bf41	0.20873739
129	0xbd4b5a65	-0.049646754
130	0x3dcada05	0.09904865
131	0x3d806f7e	0.062712654
132	0x3c7fef5c	0.015621033
133	0x3e100dd1	0.1406777
134	0xbda00fc6	-0.078155085
135	0xbc7e0570	-0.015504226
136	0xbdedc813	-0.11610427
137	0xbdd60a43	-0.10451176
138	0x3ea84350	0.32863855
139	0x3ceae21e	0.028672274
140	0xbe01be8b	-0.12670343
141	0xbca89124	-0.020577021
142	0xbe4189f5	-0.18900283
143	0x3e347902	0.17624286
144	0xbc4d2841	-0.012521804
145	0xbd534778	-0.05158183
146	0x3f2bc359	0.6709495
147	0xbf300f5f	-0.68773454
148	0xbd938d28	-0.07204658
149	0x3f090161	0.5351773
150	0xbc4de260	-0.012566179
151	0x3da87c85	0.08226875
152	0xbdfe938a	-0.124304846
153	0xbc8b7374	-0.017022826
154	0xbe2d6a0a	-0.16934982
155	0x3c5feb5e	0.013666956
156	0xbdcf4ade	-0.10121702
157	0x3c260378	0.010132663
158	0xbca13d57	-0.01968257
159	0x3c01a778	0.007913463
160	0xbd3c48fb	-0.045968037
161	0x3e2a94f8	0.1665839
162	0xbd0321fb	-0.03201483
163	0x3d6e15a9	0.058126125
164	0x3e010431	0.12599255
165	0x3df0e2bf	0.117619984
166	0x3d8600b6	0.06543104
167	0x3e2e205c	0.17004532
168	0xbdde43d2	-0.108527794
169	0x3e2aa52c	0.1666457
170	0x3dff232e	0.12457882
171	0xba307f93	-0.0006732877
172	0x3e137eae	0.14403793
173	0x3e1ec11b	0.15503351
174	0x3dc994ca	0.098428324
175	0x3e055a56	0.13022742
176	0x3d84529c	0.06461069
177	0xbcc205b7	-0.023684366
178	0x3d93d0c6	0.07217555
179	0xbd461185	-0.04835655
180	0x3b8fd24d	0.0043890835
181	0xbd558eca	-0.052138127
182	0xbd339b8b	-0.04384951
183	0x3e458c0e	0.19291708
184	0xbe832c53	-0.25619754
185	0xbd009d3b	-0.031399947
186	0xbd1c8323	-0.038211
187	0x3dad73c6	0.08469348
188	0xbe000733	-0.12502746
189	0x3ea79183	0.32728204
190	0x3d803a48	0.06261116
191	0x3d0f12c3	0.034930002
192	0x3e5ccb76	0.21561989
193	0x3ef9b4bf	0.4877071
194	0xbd891229	-0.06692917
195	0x3d8cf9e3	0.068835996
196	0x3e4be4cd	0.199115
197	0x3e0089bd	0.12552543
198	0xbcb86c78	-0.02251266
199	0xbd49d507	-0.049275424
200	0xbca9787f	-0.02068734
201	0xbe2ba34b	-0.1676151
202	0x3c57d32a	0.013172904
203	0x3dd9bc67	0.10631638
204	0x3de74e57	0.11294239
205	0x3cdc2fcb	0.026878258
206	0xbd8c9961	-0.06865192
207	0xbd68aa05	-0.05680277
208	0x3daab3fe	0.08335112
209	0xbc1f4b3c	-0.009722527
210	0xbc361813	-0.011114138
211	0xbe977e46	-0.29588526
212	0x3db1c0e8	0.08679372
213	0x3d1480e9	0.03625575
214	0xbc860ead	-0.01636442
215	0x3db4af44	0.08822492
216	0xbcc3c4cf	-0.023897557
217	0x3dcfc4d7	0.10144966
218	0xbcdb8fea	-0.026802022
219	0xbc7d68c5	-0.0154668735
220	0xbd2fe21b	-0.04294024
221	0x3e1998aa	0.14999643
222	0x3c869b6e	0.016431537
223	0x3c955394	0.01822833
224	0xbc1904ca	-0.009339521
225	0xbe347131	-0.17621304
226	0xbcf5517d	-0.029946083
227	0xbdc6b276	-0.097020075
228	0xbeaa2dab	-0.33237967
229	0xbcec416f	-0.028839795
230	0xbd053a5d	-0.032526363
231	0xbf5ea2fc	-0.86967444
232	0x3cd29551	0.025705965
233	0xbc51d5a5	-0.0128072845
234	0x3d6aec95	0.05735453
235	0x3d2755c0	0.040853262
236	0x3d6623dd	0.056186546
237	0x3d1a06f8	0.037604302
238	0x3e10f375	0.14155371
239	0x3cf39b38	0.0297371
240	0x3bb7cd48	0.005609188
241	0x3d8885d8	0.06666154
242	0xbdb47958	-0.08812207
243	0xbd835b98	-0.064139545
244	0xbe107073	-0.14105396
245	0xbca1046f	-0.019655434
246	0x3da48c1d	0.08034537
247	0x3d4da884	0.050209537
248	0x3daa2828	0.083084404
249	0x3bca7752	0.006178775
250	0x3dce56cc	0.10075149
251	0x3e2b51fd	0.16730495
252	0x3d197012	0.037460394
253	0xbe21cbc7	-0.15800391
254	0x3c5567a4	0.013025198
255	0x3d9ec114	0.077516705

bias f4 [128]
0	0x3e807f8e	0.25097317
1	0x3fb13928	1.3845568
2	0x3f16189d	0.58631307
3	0x3fab29ce	1.3372133
4	0x3fc5b571	1.5445997
5	0x3f785ab2	0.9701339
6	0x3f675c0a	0.90374815
7	0x3f4f4996	0.8097166
8	0x3deeb34e	0.116552934
9	0x3c8aa04a	0.016922135
10	0x3f431179	0.76198536
11	0x3f3483f6	0.70513856
12	0xbd310f8e	-0.043227725
13	0x3f4fae19	0.81125027
14	0x3f8fcdc1	1.1234666
15	0x3f5929bd	0.8482931
16	0x3f7383bb	0.9512288
17	0x3f161960	0.5863247
18	0x3f02fc67	0.51166385
19	0x3f43bcab	0.7645976
20	0x3fc149ec	1.5100684
21	0x3e92d483	0.2867776
22	0x3f21865a	0.6309563
23	0x3fa3b0d4	1.2788339
24	0x3fb4224b	1.4072965
25	0x3fdf121d	1.7427403
26	0x3eb89791	0.36053136
27	0x3f0e8755	0.5567525
28	0x3d856352	0.065130845
29	0x3f3d2b8d	0.7389458
30	0x3e83928c	0.25697744
31	0x3f1580b4	0.5839951
32	0xbd121003	-0.0356598
33	0x3f948c50	1.160532
34	0x3ed15d4b	0.4089149
35	0x3f1059ab	0.5638682
36	0x3fcdec73	1.6087784
37	0x3f89abcc	1.0755553
38	0x3f875a2f	1.0574397
39	0x3f9d5b83	1.2293552
40	0x3f44f125	0.7693046
41	0x3f88debe	1.0692976
42	0x3fa47997	1.2849606
43	0x3fc5f807	1.5466317
44	0x3fb0a270	1.3799572
45	0x3fb5728a	1.417558
46	0x3f4c985a	0.7991997
47	0x4002d7f7	2.0444314
48	0x3e0ca3aa	0.13734308
49	0xbd827243	-0.0636945
50	0x3fbfa313	1.4971641
51	0x3fa2e3b8	1.2725744
52	0x3f1bf2c0	0.6091728
53	0x3fa6d8f6	1.3034961
54	0x3f984942	1.1897357
55	0x3fcc9e0f	1.5985736
56	0x3ee5fb1b	0.4491814
57	0x3f85f41b	1.046512
58	0x3f673723	0.90318507
59	0x3f1c66e3	0.6109449
60	0xbe483ad1	-0.19553687
61	0x3dcd9d88	0.10039812
62	0x3d42a7d1	0.047523323
63	0x3f1bd94b	0.6087844
64	0x3f877566	1.0582702
65	0xbe5a5273	-0.21320514
66	0x3fbfde69	1.4989749
67	0x3ed7d52e	0.4215483
68	0x3fd751e9	1.6821872
69	0x3fe7c253	1.8106178
70	0x3fd0b859	1.6306258
71	0x3fb8589a	1.4402039
72	0x3f18a04d	0.596196
73	0x3f98b794	1.1931024
74	0x3e1459cd	0.14487381
75	0x3fac2876	1.3449848
76	0x3fb48bd6	1.4105175
77	0x3e93f9c9	0.28901508
78	0x3e53e9f7	0.2069472
79	0xbefc3e17	-0.4926612
80	0x3f7f3fe1	0.99706846
81	0x3f8f8666	1.121289
82	0x3fc9e928	1.5774279
83	0x3fa2c5e4	1.2716641
84	0x3fbc592f	1.4714717
85	0x3ea68146	0.32520503
86	0x3f059670	0.52182674
87	0x3f9417a5	1.1569716
88	0x3efca980	0.49348068
89	0xbee24d75	-0.4419972
90	0xbd9daaf7	-0.076986246
91	0x3f8d0f1a	1.1020234
92	0x3f6c0781	0.9219895
93	0xbdfb2ec9	-0.12264783
94	0x3f89ad83	1.0756077
95	0x3fa8df2c	1.3193107
96	0xbc73bc25	-0.0148764
97	0x3f87a229	1.0596362
98	0xbd08d195	-0.033402998
99	0x3f182497	0.5943083
100	0xbea9bbb6	-0.33151025
101	0xbd925b7a	-0.07146354
102	0xbf1ce0eb	-0.612807
103	0xbfee2e76	-1.8607929
104	0x3fbdfb19	1.4842254
105	0xbe0bfbbc	-0.13670248
106	0x3fa9b5be	1.3258588
107	0x3faea3bf	1.3643721
108	0x3f787371	0.9705115
109	0x3ebb7d12	0.3661886
110	0x3fc3af5b	1.5287889
111	0xbec05599	-0.37565306
112	0x3f33608d	0.700692
113	0x3fee9266	1.8638427
114	0x3f1b49cc	0.6065948
115	0xbf44af07	-0.7682957
116	0x3ee62bbc	0.44955242
117	0x3ea328c5	0.31867042
118	0x3ed507a5	0.41607395
119	0x3fd09703	1.6296085
120	0x3fc01ee6	1.500943
121	0xbe01cc7d	-0.12675662
122	0x3fd9347e	1.6969144
123	0x3e680c27	0.22660886
124	0x3f9a071c	1.203342
125	0x3f95e0dc	1.1709247
126	0xbe0f8e12	-0.1401904
127	0x3f336ab7	0.7008471

weight f4 [6, 128]
0	0x3d55a604	0.052160278
1	0x3d7f3c2b	0.06231324
2	0x3d2981ef	0.04138368
3	0x3d645b3e	0.055751078
4	0x3cf2ff67	0.029662801
5	0xbd350f04	-0.044203773
6	0xbbebafe4	-0.0071925987
7	0xbcb80d6b	-0.022467336
8	0x3d285595	0.041097242
9	0x3f5ce533	0.8628723
10	0xbc538a7f	-0.012911438
11	0xbcde4355	-0.027131716
12	0x3d34b676	0.04411932
13	0xbd3759d6	-0.04476341
14	0x3d9bbf9b	0.07604905
15	0xbd71d344	-0.05903937
16	0x3cf241e8	0.029572442
17	0x3d8f64f7	0.070016794
18	0x3d7bc30b	0.061465304
19	0x3d61e4a2	0.055149682
20	0x3d6341a5	0.055482525
21	0xbd30d032	-0.0431673
22	0xbc3534f0	-0.011059985
23	0x3d628aee	0.055308275
24	0x3cdd4640	0.027011037
25	0x3d899cc2	0.06719352
26	0xbd4a6b3d	-0.049418677
27	0xbc04d5fc	-0.0081076585
28	0xba1f33f9	-0.0006073113
29	0x3d304a63	0.04303969
30	0x3b89ba5f	0.0042031254
31	0x3d6464e3	0.055760276
32	0x3d8b9098	0.068146884
33	0xbe52f0de	-0.20599696
34	0xbd08c2c4	-0.033388868
35	0x3d827e05	0.063716926
36	0xbdad65c4	-0.08466676
37	0xbda5f313	-0.08103003
38	0x3d2aedf6	0.041730843
39	0x3d6877de	0.05675494
40	0x3d539a4e	0.05166083
41	0x3d3bcc2e	0.045849018
42	0x3dd9c22e	0.1063274
43	0x3d7ec4f3	0.062199544
44	0x3d661320	0.056170583
45	0xbb1c5b8b	-0.0023858275
46	0x3d67903a	0.05653403
47	0x3af80b66	0.0018924295
48	0xbbca3cd2	-0.006171801
49	0xbd992842	-0.07478382
50	0x3d722cc8	0.059124738
51	0x3d5c9bc5	0.05385949
52	0xbd9ebca0	-0.07750821
53	0x3d478816	0.048713766
54	0x3da03326	0.07822256
55	0xbd9a96fc	-0.07548329
56	0xbd55bb72	-0.052180715
57	0x3cf5c3e5	0.030000636
58	0xbcab5ebf	-0.020919202
59	0x399bb3ee	0.00029697962
60	0xbadbb057	-0.0016760927
61	0xbd97f24f	-0.074192636
62	0xbc2639e1	-0.010145635
63	0xbcf60bd4	-0.030034937
64	0x3c43c109	0.011947879
65	0x3c9565df	0.018237052
66	0x3d7131f0	0.058885515
67	0xbcd90a6c	-0.026494227
68	0xbc274dd1	-0.010211424
69	0xbcfc0942	-0.030766133
70	0xbd61cac5	-0.055125017
71	0x3d84c3cc	0.06482658
72	0x3dd528d5	0.10408179
73	0xbbe740b5	-0.007057274
74	0xbac1fdee	-0.0014800408
75	0x3d0bded6	0.03414806
76	0x3c0bb147	0.008526153
77	0xbd946390	-0.072455525
78	0x3d252c2e	0.040325336
79	0x3b7b180e	0.0038313898
80	0xbb4dcc8b	-0.0031402435
81	0x3d9ffbac	0.078116745
82	0xbdfb0f1e	-0.12258743
83	0xbd396204	-0.04525949
84	0xbdca0898	-0.098649204
85	0x3d4ee508	0.05051139
86	0x3d8ee487	0.06977182
87	0x3c9da749	0.019244807
88	0xbd134f0a	-0.03596405
89	0x3a77dcc5	0.00094551995
90	0x3cfc14cd	0.030771637
91	0xbc29e46a	-0.0103694
92	0x3d3fcadf	0.046824332
93	0x3d95f5be	0.07322262
94	0x3ca5b384	0.020227201
95	0xbcad49be	-0.021153327
96	0x3d738547	0.059453275
97	0x3d49ff12	0.04931552
98	0xbd8c026b	-0.06836399
99	0xbabfe979	-0.0014641724
100	0xbc29577c	-0.010335799
101	0x3aa8c8b6	0.0012877199
102	0x3c889279	0.016671406
103	0x3e901090	0.28137636
104	0x3d8f533d	0.06998298
105	0xbcbbbb31	-0.022916408
106	0x3d3e89ef	0.046518262
107	0x3d063fe3	0.03277577
108	0x3d3616e5	0.044455428
109	0xbca0bca0	-0.019621193
110	0x3d863d28	0.065546334
111	0xbcc4ec61	-0.024038495
112	0x3d8131e8	0.06308347
113	0xbd583a11	-0.05278975
114	0xbca70cc2	-0.020391826
115	0x3c7f05bd	0.015565333
116	0xbd00f272	-0.031481214
117	0x3da69a99	0.08134956
118	0xbcb1bbce	-0.021695998
119	0x3cc4f920	0.024044573
120	0xbdbabd91	-0.09118188
121	0x3c566d13	0.013087529
122	0x3d8ae8c3	0.06782677
123	0x3c3a812e	0.011383338
124	0xbd8e0e4d	-0.069363214
125	0x3c98b02b	0.018638691
126	0x3ad17c11	0.0015982409
127	0xbd7dc79a	-0.061957933
128	0x3aa6a12d	0.0012712829
129	0x3b230ed9	0.0024880676
130	0xbb81043d	-0.003937273
131	0xbc241f4b	-0.010017226
132	0xbcae1658	-0.021250889
133	0xbc9f6ac2	-0.019460086
134	0x3db56dba	0.08858819
135	0x3dcaa681	0.09895039
136	0xbd24bb3d	-0.040217627
137	0xbd1d09c8	-0.038339406
138	0xbe3816a1	-0.17977382
139	0x3da59ace	0.08086167
140	0x3d85c6b8	0.06532043
141	0x3d7be8d4	0.06150134
142	0xbb78866b	-0.0037921916
143	0x3d5f9a39	0.054590438
144	0x3b5f7711	0.0034098069
145	0x3be9d4d5	0.0071359673
146	0x3cbd5f61	0.02311677
147	0xbb4e49ee	-0.003147717
148	0xbc884a32	-0.016636942
149	0x3d268f38	0.040663928
150	0xbdd99491	-0.1062404
151	0xbbdec487	-0.00679833
152	0xbc5e8efd	-0.013583896
153	0x3c103d5b	0.008803691
154	0x3ba275e3	0.004957901
155	0x3d93262f	0.07185017
156	0xbcae7da2	-0.02130014
157	0xbbef504d	-0.007303274
158	0x3a1c3cd1	0.000595999
159	0x3c2e2c03	0.01063061
160	0x3e974ca3	0.29550657
161	0x3f552b76	0.8326944
162	0x3d1059cc	0.035241887
163	0x3b6b7072	0.0035925177
164	0x3ca3465d	0.019931013
165	0xbc5c869a	-0.013459826
166	0xbd0a9b5c	-0.03383957
167	0xbc93502a	-0.017982561
168	0xbc200430	-0.009766623
169	0xbb7a9482	-0.003823549
170	0xbc8e4c22	-0.017370287
171	0x3b9808e2	0.004639731
172	0xbc64ecdf	-0.01397249
173	0xbc814842	-0.015781526
174	0xbbf4876a	-0.0074624317
175	0xbd817ddd	-0.06322835
176	0xbdbd512f	-0.09244
177	0xbd856959	-0.06514234
178	0xbb71cf1a	-0.0036897124
179	0xbc53c213	-0.012924689
180	0xbd3a632a	-0.045504726
181	0xbc81310f	-0.015770463
182	0xbc7b4600	-0.0153365135
183	0xbc6101e0	-0.013733357
184	0x3c804d94	0.015661992
185	0xbb7f86b7	-0.0038990208
186	0x3bc37b41	0.0059656207
187	0x3ba51c5d	0.0050387816
188	0x3e44cc1b	0.19218485
189	0xbdfdd70d	-0.12394533
190	0x3f8d93eb	1.1060766
191	0x3d86dce3	0.065850995
192	0xbd1ac4f4	-0.037785485
193	0x3cb55201	0.02213383
194	0xbb5c9716	-0.003365939
195	0x3e2173df	0.15766858
196	0xbd960d34	-0.07326737
197	0xbcf2f56a	-0.029658038
198	0x3d0fd98e	0.035119586
199	0xbc513ef7	-0.01277136
200	0xbb5c28aa	-0.0033593574
201	0xbc2c2cc2	-0.010508718
202	0x3d86501c	0.065582484
203	0xbc824308	-0.015901104
204	0x3b152e94	0.0022763358
205	0x3c40d3b8	0.011769228
206	0x3ea9a567	0.33134004
207	0x3cbd54a0	0.023111641
208	0x3c965bf4	0.018354394
209	0x3baa3b17	0.0051950323
210	0x3ca7bd98	0.020476148
211	0xbcdef72b	-0.027217468
212	0xbc37dff7	-0.011222831
213	0x3d4bd226	0.04976096
214	0x3c872f3f	0.01650202
215	0xbb5cdae5	-0.0033699807
216	0x3d107201	0.035264973
217	0x3d225910	0.039635718
218	0xbd851ca3	-0.06499603
219	0xbd18c92d	-0.03730123
220	0xb99ed8a4	-0.00030297518
221	0xbcc9b3ac	-0.024621807
222	0xbc1504e7	-0.009095407
223	0x3b2c998a	0.0026336634
224	0x3cc960c0	0.024582267
225	0xbbcaa15d	-0.006183787
226	0x3dab88f0	0.08375728
227	0x3dcd3007	0.10018926
228	0xbca75005	-0.020423898
229	0x3cc4a851	0.02400604
230	0xbd276c1f	-0.040874597
231	0x3cc71f57	0.024306936
232	0x3b44d425	0.0030033675
233	0xbdad23d6	-0.08454101
234	0x3acdcba8	0.0015700953
235	0xbc005d49	-0.007834741
236	0xbca16d04	-0.019705303
237	0x3b81916b	0.0039541028
238	0xbb0b7873	-0.002128151
239	0xbcabf95d	-0.02099293
240	0x3c980aaf	0.018559782
241	0xbd22ebff	-0.039775845
242	0xbca4a0e8	-0.020096257
243	0xbdb617d1	-0.08891261
244	0x3d4fdb5d	0.05074631
245	0x3f067281	0.5251847
246	0xbc428ce0	-0.0118744075
247	0xbcaf4ad6	-0.02139799
248	0x3ab15f41	0.0013532416
249	0x3d19ca9a	0.03754673
250	0xb9afc082	-0.0003352203
251	0x3e4d053f	0.20021532
252	0xbdadc849	-0.08485467
253	0xbc2747c2	-0.0102099795
254	0x3d239046	0.03993251
255	0xbc2936ce	-0.010328008

bias f4 [6]
0	0x408340b0	4.1016464
1	0x3f78d8db	0.97205895
2	0x3f531bcf	0.8246431
3	0x3f54ef11	0.83177286
4	0x3eff2642	0.49833876
5	0x3f857b5e	1.0428274
