src/resources/models_and_scalers/usability_model.pt (torch, 338199 bytes, 5 tensors)

weight f4 [160, 3]
0.8878352 -0.09160057 0.383931 0.53388816 -0.105999716 -0.5169858 0.44467992 0.06743454
-0.48801664 0.013115095 0.20421632 -0.18861513 -0.4218039 0.26118812 0.0742046 0.2998057
0.3711264 0.25770888 0.21362302 0.14631517 0.30446368 0.017849008 0.1932574 -0.26219925
-0.14457434 0.18487531 0.13456194 -0.17045179 0.20614639 -0.6802656 0.037576705 0.082556844
0.012217945 -0.27908128 0.19888946 -0.71512806 0.24728714 -0.18828076 0.18401255 0.16794881
0.049577754 -0.1843874 -0.37167054 0.005323398 -0.054581854 0.28096744 -0.38380274 -0.21465015
0.31520805 -0.3075107 0.21861793 0.22114664 0.23067392 0.15496856 0.5865113 -0.1314023
-0.60136783 -0.009698027 -0.27895865 -0.2072054 0.39626262 0.10361367 0.3009985 -0.5835206
0.16504388 0.17759717 -0.34300378 0.10234865 -0.26215443 0.015250138 0.37945578 -0.49330187
0.45024997 0.19252695 0.15577912 0.2072509 -0.3585263 -0.14433809 0.7222304 -0.4198058
0.19887203 0.0488353 0.081548795 -0.15868543 -0.157347 0.11657248 -0.112622716 -0.2796374
-0.039451376 0.032983623 -0.27897137 0.38636053 0.35418177 -0.17259839 -0.22710645 0.17631519
0.008044472 0.22022796 -0.3523293 -0.042923246 -0.060167693 0.3298798 0.068404466 -0.099995516
0.05356519 0.009175731 0.047311764 -0.73271066 -0.23121144 -0.009274402 -0.112923406 0.03505576
0.0071552806 0.078040384 -0.13615885 -0.13137904 0.076335825 0.022264283 0.22179241 0.17287841
0.39363027 0.09427356 -0.35644493 -0.3525694 -0.16502361 0.20852634 -0.6278957 0.28406796
-0.26072899 0.28692508 0.018994888 0.15421775 0.016693998 -0.35676783 0.43089506 0.06266235
-0.057997108 -0.014773098 -0.1222582 0.23581019 -0.14407456 0.23227854 -0.16002859 0.018333226
-0.2467277 -0.10211588 -0.07517827 0.42155367 0.3741814 0.2727125 0.47445244 -0.10032035
-0.4291027 0.45746833 -0.10317683 0.09933415 -0.08914181 0.11303601 -0.5507418 -0.3480999
0.6454028 -0.42106643 -0.20444632 0.017070366 0.0887733 0.44240522 -0.28965017 -0.51733446
-0.20942317 0.088424176 0.27690327 -0.15098044 0.0057022846 0.039075263 -0.027761182 0.033723656
0.015909236 -0.59635824 0.306837 -0.020422438 0.5123508 -0.3241768 -0.18907166 0.08889638
0.44073555 -0.5656449 -0.6001921 0.2954031 -0.2036171 -0.09467075 0.2856472 0.047501042
0.8900463 0.27850968 0.31229702 -0.27712202 0.49232215 -0.2980261 -0.2528133 -0.18591431
0.50271106 0.04828281 0.20836194 0.21215928 -0.27256337 0.11369915 -0.25557533 -0.06745352
0.47775662 -0.7191844 0.44115523 -0.15250537 -0.45864567 0.26778567 0.6723991 -0.61062896
0.63190866 -0.10941148 0.24578555 0.22533219 0.13812223 0.35195208 0.22121339 0.41549507
-1.0896043 -0.121597685 0.4417632 0.24670877 -0.025332918 -0.119747 -0.08755792 -0.047104903
-0.18751757 0.13582419 0.3804149 0.44608963 0.29083624 0.14051373 -0.50717473 0.07142686
0.17617579 0.19724432 0.22637825 -0.014154547 0.027836647 0.0751114 0.5045705 -0.17970112
0.2156378 0.512806 -0.35456765 -0.2313797 0.27560386 0.43643034 0.109998755 0.065505795
00000000: 2b49 633f 1499 bbbd 9b92 c43e e5ac 083f
00000010: 6116 d9bd 2e59 04bf 16ad e33e 1f1b 8a3d
00000020: 51dd f9be b2e0 563c 151e 513e 5324 41be
00000030: aef6 d7be 73ba 853e 95f8 973d 2280 993e
00000040: 4804 be3e 6bf2 833e febf 5a3e a5d3 153e
00000050: aae2 9b3e 1538 923c 45e5 453e fb3e 86be
00000060: 4c0b 14be f44f 3d3e 9bca 093e ea8a 2ebe
00000070: 0a18 533e e325 2ebf 08ea 193d 9013 a93d
00000080: c72d 483c bee3 8ebe aea9 4b3e a212 37bf
00000090: d738 7d3e accc 40be c96d 3c3e c6fa 2b3e
000000a0: 0b12 4b3d 0dd0 3cbe 9a4b bebe e66f ae3b
000000b0: 3991 5fbd f7da 8f3e cb81 c4be 40cd 5bbe
000000c0: f362 a13e 0b72 9dbe 61dd 5f3e 4474 623e
000000d0: c935 6c3e 14b0 1e3e 9b25 163f 538e 06be
000000e0: 3ef3 19bf 79e4 1ebc abd3 8ebe a72d 54be
000000f0: efe2 ca3e 6733 d43d 7a1c 9a3e 9b61 15bf
00000100: 4301 293e 08dc 353e 319e afbe 2b9c d13d
00000110: 1b39 86be b7db 793c 0748 c23e 1092 fcbe
00000120: 2a87 e63e c925 453e 9084 1f3e 9439 543e
00000130: c290 b7be 5dcd 13be 17e4 383f c9f0 d6be
00000140: 1ca5 4b3e 8607 483d 0e03 a73d 6f7e 22be
00000150: 921f 21be 8dbd ee3d bda6 e6bd a22c 8fbe
00000160: c497 21bd d619 073d 56d5 8ebe 0cd1 c53e
00000170: 5057 b53e a2bd 30be 988e 68be f88b 343e
00000180: f6cc 033c 7083 613e 8264 b4be 49d0 2fbd
00000190: 6672 76bd 01e6 a83e a417 8c3d 73ca ccbd
000001a0: 2c67 5b3d ce55 163c fbc9 413d ed92 3bbf
000001b0: b1c2 6cbe a9f3 17bc 6344 e7bd a196 0f3d
000001c0: d876 ea3b a3d3 9f3d 3a6d 0bbe 3a88 06be
000001d0: f555 9c3d 9663 b63c 8d1d 633e 0a07 313e
000001e0: e889 c93e 7f12 c13d f37f b6be fa83 b4be
000001f0: f3fb 28be ee87 553e c6bd 20bf 5b71 913e
00000200: 457e 85be d8e7 923e 2b9b 9b3c 42eb 1d3e
00000210: dac1 883c 46aa b6be 479e dc3e 1e55 803d
00000220: 608e 6dbd dd0a 72bc 8262 fabd 3a78 713e
00000230: 4888 13be 6dda 6d3e 89de 23be 902f 963c
00000240: 30a6 7cbe 2122 d1bd 11f7 99bd e2d5 d73e
00000250: b494 bf3e f9a0 8b3e 6eeb f23e c174 cdbd
00000260: 59b3 dbbe 4a39 ea3e 604e d3bd b46f cb3d
00000270: fb8f b6bd 6c7f e73d 6afd 0cbf 263a b2be
00000280: 1e39 253f 0596 d7be 605a 51be 27d7 8b3c
00000290: c7ce b53d f082 e23e 074d 94be 0870 04bf
000002a0: 0773 56be bc17 b53d 44c6 8d3e 9e9a 1abe
000002b0: 3bda ba3b 620d 203d 6b6b e3bc d121 0a3d
000002c0: 1654 823c efaa 18bf bd19 9d3e f54c a7bc
000002d0: 6c29 033f 80fa a5be 009c 41be 4e0f b63d
000002e0: 17a8 e13e 1bce 10bf 31a6 19bf 133f 973e
000002f0: 0081 50be bde2 c1bd 5a40 923e 7490 423d
00000300: 13da 633f d298 8e3e 65e5 9f3e f0e2 8dbe
00000310: a611 fc3e e196 98be bf70 81be 5260 3ebe
00000320: acb1 003f 32c4 453d d55c 553e 4840 593e
00000330: 6d8d 8bbe 1adb e83d c5da 82be 1225 8abd
00000340: 849c f43e 781c 38bf 19df e13e 5e2a 1cbe
00000350: 9bd3 eabe 341b 893e 5922 2c3f 2e52 1cbf
00000360: c4c4 213f 2013 e0bd 35af 7b3e 7bbd 663e
00000370: ea6f 0d3e 1033 b43e c385 623e c5bb d43e
00000380: 2778 8bbf 3508 f9bd c92e e23e 39a1 7c3e
00000390: fb86 cfbc ea3d f5bd 9151 b3bd 12f1 40bd
000003a0: 9b04 40be 7f15 0b3e bec5 c23e dc65 e43e
000003b0: 7de8 943e d5e2 0f3e 34d6 01bf 3f48 923d
000003c0: 6d67 343e 6afa 493e b3cf 673e 79e8 67bc
000003d0: ae09 e43c 01d4 993d 882b 013f 9203 38be
000003e0: 28d0 5c3e 4147 033f e489 b5be cdee 6cbe
000003f0: f31b 8d3e cc73 df3e 0747 e13d e727 863d

bias f4 [160]
-0.6855539 -0.031447545 0.022379253 0.13615659 -0.4277626 -0.22622241 0.10954449 0.1459053
0.14475024 -0.68410075 0.024851073 -0.08986382 0.1638483 0.275792 -0.97227234 0.08684153
0.002898992 -0.46335533 -0.023890695 -0.8586948 -0.09173409 -0.63190603 -0.79634356 -0.62924963
-0.19373517 -0.84445834 -0.6731418 0.052958567 0.0686807 -0.6158637 -0.22292148 -0.60077167
-0.37380022 0.07689437 -0.000320566 -0.10678593 -0.55816525 -0.009478451 0.086588435 0.130333
-0.07665131 -0.6371489 -0.6135992 0.02871453 -0.034770902 -0.08893843 0.07263582 -0.52693915
-0.94492227 -0.7097348 -0.046104155 -0.4178553 -0.1226482 -0.27240786 -0.28711691 -0.24968325
-0.09386593 -0.4792209 -0.0110295275 -0.5568851 -0.21204036 -0.5941063 -0.61190563 0.19723403
-0.63771427 -0.18029936 -0.4352097 0.15238754 0.036324922 -0.71805346 -0.704546 -0.36189488
-0.36268568 -0.50704664 -0.321511 -0.4293568 -0.8370929 -0.080165595 -0.25301933 -0.30762437
-0.26147687 0.02909988 0.053135213 -0.20511615 -0.26384154 0.05222934 -0.24266216 0.036611926
0.10389535 0.029190337 0.2683497 -0.114484824 -0.74925286 0.17464362 -0.16547354 -0.02620978
0.10153144 -0.42766604 -0.28521174 0.0781928 -0.7528011 -0.63028383 -0.66779196 0.17560512
0.26330304 -0.1590294 -0.15741916 -0.23933798 0.053392388 -0.5616096 -0.59377635 0.021445561
-0.4011622 -0.042173225 0.23144896 -0.8151783 -0.05877038 -0.110379085 0.110910155 -0.12092981
-0.6102328 0.13881043 0.15884885 -0.13241173 -0.38011798 -0.43087816 -0.33940625 -0.45605773
-0.12348021 -0.065504886 -0.40814516 0.13066982 -0.4329108 -0.08718684 -0.20404008 0.19513513
-0.40310082 0.090874046 -0.31256273 -0.056572028 -0.35912055 -0.6953975 0.23443797 -0.06580637
-0.5477738 -0.60151905 -0.052330326 -0.077554144 -0.042662166 -0.023877442 -0.62576944 -0.647364
-0.67841226 0.21101518 0.048587013 0.034511782 -0.5812387 -0.19037132 0.3086983 0.0070488593
00000000: 7680 2fbf 24cf 00bd b254 b73c a26c 0b3e
00000010: b303 dbbe d9a6 67be dd58 e03d 3368 153e
00000020: 6839 143e 3a21 2fbf 7a94 cb3c 860a b8bd
00000030: d9c7 273e 9c34 8d3e d7e6 78bf f9d9 b13d
00000040: 04fd 3d3b e93c edbe 6bb6 c3bc 6cd3 5bbf
00000050: 15df bbbd 98c4 21bf 2cdd 4bbf 8116 21bf
00000060: 8362 46be 6c2e 58bf 0553 2cbf 15eb 583d
00000070: 78a8 8c3d 3ea9 1dbf 8745 64be 2ccc 19bf
00000080: be62 bfbe cc7a 9d3d a411 a8b9 95b2 dabd
00000090: ebe3 0ebf 814b 1bbc 4755 b13d 0476 053e
000000a0: 5dfb 9cbd 311c 23bf d614 1dbf bc3a eb3c
000000b0: ef6b 0ebd 5a25 b6bd 17c2 943d 7ce5 06bf
000000c0: 6de6 71bf 2eb1 35bf b6d7 3cbd 21f1 d5be
000000d0: fb2e fbbd 0b79 8bbe fd00 93be f7ac 7fbe
000000e0: c83c c0bd 715c f5be 31b5 34bc 0690 0ebf
000000f0: 1c21 59be 5a17 18bf d9a5 1cbf b8f7 493e
00000100: 3e41 23bf 65a0 38be ced3 debe 7b0b 1c3e
00000110: 71c9 143d 5ad2 37bf 205d 34bf 494a b9be
00000120: f0b1 b9be cfcd 01bf 179d a4be a8d4 dbbe
00000130: b84b 56bf dc2d a4bd c08b 81be f180 9dbe
00000140: 4ce0 85be df62 ee3c 4fa4 593d f809 52be
00000150: 3d16 87be 6fee 553d 6e7c 78be 63f6 153d
00000160: 16c7 d43d 9320 ef3c 2265 893e 0577 eabd
00000170: 09cf 3fbf c7d5 323e e571 29be e4b5 d6bc
00000180: b7ef cf3d 0bf7 dabe 4607 92be 8c23 a03d
00000190: 93b7 40bf 485a 21bf 6af4 2abf d4d1 333e
000001a0: a8cf 863e 9ad8 22be 7d32 21be 0415 75be
000001b0: fab1 5a3d a6c5 0fbf ba01 18bf 9aae af3c
000001c0: 2265 cdbe d5bd 2cbd f500 6d3e 86af 50bf
000001d0: 36b9 70bd 6e0e e2bd dd24 e33d 0caa f7bd
000001e0: 3738 1cbf 5224 0e3e 46a9 223e f196 07be
000001f0: d39e c2be 109c dcbe a8c6 adbe 6680 e9be
00000200: 31e3 fcbd 6d27 86bd 67f8 d0be 4fce 053e
00000210: 7ca6 ddbe 048f b2bd e2ef 50be 81d1 473e
00000220: 3b63 cebe 2c1c ba3d 3908 a0be 12b8 67bd
00000230: a6de b7be 9205 32bf 8210 703e 7dc5 86bd
00000240: e73a 0cbf 27fd 19bf 5358 56bd b5d4 9ebd
00000250: 86be 2ebd a09a c3bc 6d32 20bf a6b9 25bf
00000260: 6dac 2dbf 5d14 583e 2d03 473d 3a5c 0d3d
00000270: 0fcc 14bf b3f0 42be b40d 9e3e 1efa e63b

weight f4 [512, 160]
-0.016258229 0.045267835 0.05813832 -0.033308733 0.020692244 -0.14553346 -0.107267834 0.0071806908
-0.107615165 -0.03114156 -0.03553346 -0.01859395 -0.021373304 -0.07035459 0.05937097 -0.019444488
-0.059527334 -0.047538534 -0.028104968 0.03014939 -0.0763031 -0.031563852 0.057583656 -0.0681348
-0.034879804 -0.0025031269 -0.013448171 -0.06668172 0.043479953 -0.048548914 -0.12953798 -0.11731122
-0.059662413 -0.08919537 -0.08494213 0.0036900688 -0.039628454 -0.104241945 -0.1385026 -0.065099835
0.023377165 -0.112487115 -0.0829887 -0.008197144 -0.06927327 -0.03267782 0.012449208 -0.1460185
-0.017081719 -0.018823747 -0.07647252 -0.058773898 0.050592847 -0.003708264 -0.09874974 -0.027040046
-0.008437632 0.06455754 -0.038257685 0.0128490105 0.04450611 -0.053011462 -0.087283045 -0.07191296
-0.109045975 -0.0034492612 -0.001573723 -0.14448321 -0.069995545 -0.020397201 -0.04085222 -0.05054714
0.034629814 -0.012119153 -0.06114749 -0.043716155 0.029975615 -0.0077556064 -0.13746196 -0.049253985
-0.08113275 -0.13137817 -0.15315402 0.05795265 -0.06393394 0.025392339 -0.052136764 -0.019552771
-0.08472622 -0.048379052 -0.04295424 -0.0226246 -0.062452216 -0.048154484 -0.018832624 -0.058112074
-0.02592676 -0.12904935 0.045957368 -0.11302215 0.040251575 -0.14508279 -0.11775865 -0.1511116
-0.016832842 -0.06588649 0.05684506 0.0748857 0.01990566 -0.04429032 -0.08069342 -0.03496302
0.01654007 -0.063430995 -0.06468203 0.050898448 0.020103801 0.024559163 -0.04704385 0.041688025
-0.050920255 0.0022207936 -0.04166731 0.045303404 -0.010686609 -0.10083776 -0.13588189 0.0067133307
-0.08348442 0.041744508 -0.011746556 -0.050471965 -0.048231244 -0.076757915 0.023035757 -0.06625534
-0.022158002 -0.03842356 -0.006775208 -0.087702475 -0.095091924 -0.03400306 0.037640918 0.07764388
0.073865615 0.043475166 -0.07315476 -0.08533064 -0.13317814 0.017964626 0.01513942 -0.119093314
0.02789639 -0.12259875 -0.009833958 -0.086563125 -0.040363926 -0.11121284 -0.011224217 -0.12010353
0.045815997 -0.04654665 -0.08287452 0.015744949 0.005588458 -0.05332334 0.027192842 -0.1930874
0.04886467 0.10448667 -0.12121765 0.035763476 -0.057458207 -0.062078454 0.03860815 0.010143747
0.0057898015 0.0448246 -0.013820805 0.05073143 -0.08431138 -0.074765205 -0.0039055464 0.0416484
-0.0056642788 -0.1004187 0.11080739 -0.124346875 -0.02154297 0.01507186 -0.07628197 -0.0007887697
-0.040760253 0.034565438 -0.026310576 -0.004818614 0.05396873 -0.059536465 0.055601083 -0.008820941
-0.15759918 -0.0342478 0.011690811 -0.088246055 -0.056327917 0.043848496 -0.0990302 -0.043234028
-0.032406114 0.0277314 -0.07545726 0.090962924 0.05251411 -0.09327078 0.026083494 0.0293881
0.0484512 -0.06002432 -0.061230574 -0.014174426 0.083961785 0.030434841 -0.115567714 -0.035874695
0.0051269704 -0.06331284 0.044597536 -0.068872124 -0.0034554335 -0.010136476 -0.09980557 0.0003723693
0.08974207 -0.007995964 0.00713068 -0.0609275 -0.030721873 -0.034284465 0.035708554 -0.07896891
0.014770913 -0.10948838 0.002983951 -0.06873048 -0.09048594 -0.107079744 0.062115934 -0.014056694
-0.063986525 0.04885669 0.020735012 0.025345063 -0.032431222 0.058716413 0.024814514 -0.06633411
00000000: fa2f 85bc c46a 393d 7222 6e3d bd6e 08bd
00000010: c882 a93c b906 15be 3daf dbbd 004c eb3b
00000020: 5765 dcbd 961c ffbc 898b 11bd 5752 98bc
00000030: 1117 afbc 1116 90bd f92e 733d 0c4a 9fbc
00000040: efd2 73bd c4b7 42bd 643c e6bc dbfb f63c
00000050: cd44 9cbd 1949 01bd d7dc 6b3d 428a 8bbd
00000060: 20de 0ebd 800b 24bb b855 5cbc 6d90 88bd
00000070: 0918 323d 3adb 46bd 9ba5 04be dd40 f0bd
00000080: 9360 74bd 10ac b6bd 24f6 adbd 15d5 713b
00000090: 7251 22bd cd7c d5bd a0d3 0dbe 1053 85bd
000000a0: 7881 bf3c a55f e6bd fbf5 a9bd 504d 06bc
000000b0: 25df 8dbd 2ed9 05bd c3f7 4b3c e085 15be
000000c0: f6ee 8bbc 4234 9abc a09d 9cbd e6bc 70bd
000000d0: 723a 4f3d 5906 73bb 4e3d cabd 1683 ddbc
000000e0: fe3d 0abc be36 843d 17b4 1cbd a884 523c
000000f0: 0a4c 363d 8c22 59bd 74c1 b2bd 1a47 93bd
00000100: 7f53 dfbd 000d 62bb 6245 ceba 68f3 13be
00000110: d359 8fbd 0818 a7bc a854 27bd 850a 4fbd
00000120: fed7 0d3d 698f 46bc ca75 7abd b60f 33bd
00000130: 6c8f f53c be22 febb d4c2 0cbe 8cbe 49bd
00000140: ed28 a6bd 0088 06be 68d4 1cbe c25f 6d3d
00000150: ccef 82bd 9803 d03c 5c8d 55bd 222d a0bc
00000160: f184 adbd 1d29 46bd c9f0 2fbd 3a57 b9bc
00000170: e5cd 7fbd a33d 45bd e046 9abc ed06 6ebd
00000180: 5b64 d4bc 8325 04be cb3d 3c3d 2878 e7bd
00000190: d6de 243d 9590 14be 722b f1bd 00bd 1abe
000001a0: 07e5 89bc 7fef 86bd 5ed6 683d ad5d 993d
000001b0: 3211 a33c c469 35bd 9742 a5bd 6235 0fbd
000001c0: 0a7f 873c 1ce8 81bd 0378 84bd e47a 503d
000001d0: bab0 a43c 4c30 c93c 0db1 40bd 10c1 2a3d
000001e0: c291 50bd bc8a 113b 57ab 2abd 1090 393d
000001f0: e316 2fbc 0784 cebd 9f24 0bbe 80fb db3b
00000200: e1f9 aabd 4afc 2a3d a074 40bc b1bb 4ebd
00000210: 208e 45bd 4133 9dbd 7cb5 bc3c e1b0 87bd
00000220: b384 b5bc 0662 1dbd 9002 debb 5b9d b3bd
00000230: 8ebf c2bd cb46 0bbd 5d2d 1a3d c103 9f3d
00000240: db46 973d 0413 323d 2ad2 95bd d5c1 aebd
00000250: da5f 08be 8d2a 933c 540b 783c 32e7 f3bd
00000260: f886 e43c 0e15 fbbd 9c1e 21bc 0248 b1bd
00000270: a554 25bd 8fc3 e3bd c7e5 37bc d7f8 f5bd
00000280: 8ea9 3b3d b3a7 3ebd 1eba a9bd 8dfb 803c
00000290: 621f b73b 9369 5abd 86c3 de3c b4b8 45be
000002a0: 5226 483d 1bfd d53d f640 f8bd b97c 123d
000002b0: 4c59 6bbd fa45 7ebd 9423 1e3d f531 263c
000002c0: 60b8 bd3b 009a 373d a870 62bc c3cb 4f3d
000002d0: 72ab acbd 801e 99bd 32f4 7fbb 8397 2a3d
000002e0: 6a9b b9bb 52a8 cdbd fcee e23d 93a9 febd
000002f0: e27a b0bc f6ef 763c b939 9cbd 70c5 4eba
00000300: 39f4 26bd 7d94 0d3d 4789 d7bc 77e5 9dbb
00000310: 510e 5d3d 82dc 73bd f6bd 633d b585 10bc
00000320: ae61 21be 6c47 0cbd d18a 3f3c 59ba b4bd
00000330: 1ab8 66bd 7b9a 333d 58d0 cabd 2a16 31bd
00000340: 46bc 04bd f62c e33c 5689 9abd c54a ba3d
00000350: 0919 573d c004 bfbd 0dad d53c 50bf f03c
00000360: c474 463d 10dc 75bd e9cc 7abd da3b 68bc
00000370: 28f4 ab3d 7d52 f93c c4ae ecbd 58f1 12bd
00000380: 2500 a83b 2aaa 81bd e8ab 363d d40c 8dbd
00000390: 8e74 62bb 7613 26bc dd66 ccbd 903a c339
000003a0: b1ca b73d 8101 03bc 7ba8 e93b 1d8f 79bd
000003b0: 70ac fbbc de6d 0cbd 2243 123d 74ba a1bd
000003c0: b301 723c 723b e0bd 648e 433b 91c2 8cbd
000003d0: b150 b9bd a04c dbbd 476d 7e3d 0c4e 66bc
000003e0: 5e0b 83bd f41d 483d 79dc a93c 73a0 cf3c
000003f0: 9ad6 04bd 9f80 703d cf47 cb3c 2eda 87bd

bias f4 [512]
-0.10256425 -0.05794368 0.15092917 -0.1316978 -0.11095227 -0.07764578 -0.063436575 -0.15318938
-0.09642216 -0.07278449 -0.018824322 -0.03253299 -0.015872292 -0.072890714 0.01719652 -0.09451358
-0.038581166 -0.08466656 -0.06080201 -0.02728839 -0.095399134 -0.090467975 -0.024559392 -0.1632025
-0.0494257 -0.11847002 0.032599125 -0.04380659 -0.097821586 -0.075663574 0.19268622 -0.007941453
-0.08098206 0.038699124 -0.041995645 0.009284523 -0.0107449135 -0.064415306 -0.08215878 0.27120057
-0.064193144 0.002706699 -0.0016068696 -0.08851485 -0.085864134 0.010453664 -0.05023722 0.11190223
-0.112300985 -0.02365582 0.1544577 -0.20596959 -0.023293508 -0.11909508 0.22721954 -0.061034653
0.0123559795 -0.11782042 -0.023127275 -0.113756716 -0.0033758276 -0.03366127 -0.05345323 -0.0027860852
-0.0500047 -0.09607059 0.07342108 -0.067617394 0.012745534 0.043140437 0.0059916126 0.03151276
-0.116038516 -0.08831983 -0.049410917 0.036411542 0.1829944 -0.17978275 -0.056029823 -0.10643285
-0.18020579 -0.09744814 -0.038961828 0.109975204 -0.029009622 -0.15683094 -0.030126395 0.069041796
0.011484692 -0.06832242 0.13796438 0.0034456593 -0.020343374 0.04750023 -0.014224683 -0.09960264
-0.06926458 -0.04113753 -0.025220904 -0.026010703 0.038155638 0.094786815 0.034573644 -0.11921594
-0.071333215 -0.011719537 -0.098852895 -0.08348332 -0.035886772 0.0045073256 -0.0002413409 -0.10756318
-0.058025993 0.022675086 -0.04234098 0.031449467 -0.15045269 -0.030442445 -0.0020462566 0.19988114
0.0010424504 -0.098814316 0.014881431 -0.12878326 -0.18274236 0.014229453 0.21051069 -0.0810169
-0.14981017 0.018710565 -0.08673548 -0.024435198 -0.048592273 0.01941398 -0.14059864 -0.010229491
-0.08152103 -0.0129544465 0.03423076 -0.21372807 0.19602899 -0.14779198 -0.065399274 -0.05619187
-0.08342114 -0.08798548 -0.107577264 -0.10336082 0.03343678 0.070311375 -0.039595608 -0.044681028
0.017040836 -0.07203577 0.026148321 -0.07681122 -0.020727688 -0.11474526 0.01570032 -0.08139829
-0.014931349 -0.06517622 0.14787409 0.030324949 -0.057675704 -0.07955483 0.11822994 -0.0040773805
-0.062294263 0.22681238 -0.34515002 0.11593984 -0.02218471 -0.016701704 -0.040122304 0.18850401
0.013730015 -0.13746677 -0.0806681 0.040550616 -0.19718643 -0.0063572475 -0.09545679 -0.0734518
-0.1699766 0.20344032 -0.020349573 -0.049736455 0.023624692 -0.04953295 -0.0842967 -0.048702817
-0.1829507 -0.18635812 0.15521152 -0.096879475 0.019983532 -0.047486816 -0.008726494 -0.06222118
-0.14193016 -0.04474249 0.15719283 -0.029838013 0.029079368 -0.081546284 -0.04634938 0.19165085
-0.054016992 -0.09444674 -0.07310588 -0.018712219 -0.108121954 -0.092616744 0.22570646 -0.09259972
-0.07513443 -0.08945314 -0.040998667 -0.20672436 -0.03740722 -0.062315363 -0.016453333 -0.029501846
-0.17351025 -0.15519007 -0.12451186 0.2647941 -0.029025223 0.29889417 0.17816712 -0.02777352
-0.09693414 -0.054855615 0.206863 -0.10416968 0.110835016 -0.116183065 -0.04922018 -0.04331389
-0.04536024 0.031441692 -0.08358821 -0.22923915 -0.048152648 -0.042028803 0.004854514 -0.0082494505
-0.02397705 -0.09558761 -0.049063098 -0.004963802 -0.15033223 -0.060066573 -0.060403135 -0.07992533
00000000: 350d d2bd 5a56 6dbd 2d8d 1a3e cadb 06be
00000010: f23a e3bd c004 9fbd 09eb 81bd addd 1cbe
00000020: fb78 c5bd 0910 95bd 7735 9abc 5041 05bd
00000030: 9c06 82bc ba47 95bd b7df 8c3c 5690 c1bd
00000040: 4907 1ebd a965 adbd 870b 79bd e78b dfbc
00000050: 9f60 c3bd 4647 b9bd c730 c9bc 8e1e 27be
00000060: 9a72 4abd 69a0 f2bd a986 053d 8a6e 33bd
00000070: af56 c8bd 81f5 9abd 894f 453e de1c 02bc
00000080: ecd9 a5bd f982 1e3d a003 2cbd 1d1e 183c
00000090: 6f0b 30bc 2cec 83bd dd42 a8bd cdda 8a3e
000000a0: b277 83bd e062 313b 999d d2ba 4647 b5bd
000000b0: 89d9 afbd d845 2b3c 8bc5 4dbd ff2c e53d
000000c0: 0ffe e5bd dac9 c1bc 292a 1e3e b1e9 52be
000000d0: 07d2 bebc 1fe8 f3bd 3dac 683e 79ff 79bd
000000e0: bc70 4a3c d54b f1bd 6975 bdbc 48f9 e8bd
000000f0: fd3c 5dbb 66e0 09bd c6f1 5abd c196 36bb
00000100: bad1 4cbd a8c0 c4bd cb5d 963d fd7a 8abd
00000110: a5d2 503c 07b4 303d 4a55 c43b 8613 013d
00000120: 9aa5 edbd 07e1 b4bd 1a63 4abd 4524 153d
00000130: e262 3b3e f818 38be 877f 65bd 77f9 d9bd
00000140: de87 38be e492 c7bd 7096 1fbd ae3a e13d
00000150: 96a5 edbc 4a98 20be a1cb f6bc c965 8d3d
00000160: 4a2a 3c3c a0ec 8bbd 8946 0d3e 92d0 613b
00000170: 26a7 a6bc 9a8f 423d a50e 69bc 78fc cbbd
00000180: 97da 8dbd d47f 28bd 129c cebc 6614 d5bc
00000190: 1649 1c3d 971f c23d 189d 0d3d 7d27 f4bd
000001a0: 2617 92bd 4d03 40bc 6373 cabd 4ef9 aabd
000001b0: 02fe 12bd 30b2 933b 7410 7db9 164a dcbd
000001c0: aaac 6dbd 1ac1 b93c bc6d 2dbd 28d1 003d
000001d0: 4510 1abe 6f62 f9bc 7d1a 06bb a4ad 4c3e
000001e0: d5a2 883a 295f cabd 3fd1 733c c2df 03be
000001f0: d020 3bbe a722 693c 1d90 573e 30ec a5bd
00000200: d667 19be e646 993c 5fa2 b1bd 532c c8bc
00000210: b108 47bd 110a 9f3c 17f9 0fbe 9899 27bc
00000220: 7ff4 a6bd e33e 54bc 8e35 0c3d 88db 5abe
00000230: d3bb 483e c856 17be 0ef0 85bd 7229 66bd
00000240: b4d8 aabd bb31 b4bd 7851 dcbd d6ae d3bd
00000250: 01f5 083d 69ff 8f3d 012f 22bd 7403 37bd
00000260: 3999 8b3c 7d87 93bd 0135 d63c 334f 9dbd
00000270: 1dcd a9bc 90ff eabd f59d 803c 26b4 a6bd
00000280: 9ea2 74bc 1c7b 85bd 4e6c 173e 076c f83c
00000290: 5c3d 6cbd a5ed a2bd 8a22 f23d 8c9b 85bb
000002a0: 4528 7fbd 8141 683e 81b7 b0be de71 ed3d
000002b0: b5bc b5bc 03d2 88bc 4957 24bd 3207 413e
000002c0: dbf3 603c 17c4 0cbe 5135 a5bd 6718 263d
000002d0: 3deb 49be 7550 d0bb d97e c3bd e66d 96bd
000002e0: 590e 2ebe a952 503e 26b4 a6bc 74b8 4bbd
000002f0: 9288 c13c 10e3 4abd c0a3 acbd 9b7c 47bd
00000300: 6e57 3bbe aad4 3ebe c5ef 1e3e bf68 c6bd
00000310: 81b4 a33c 8981 42bd 92f9 0ebc a3db 7ebd
00000320: 2456 11be e743 37bd 28f7 203e d96e f4bc
00000330: db37 ee3c bd01 a7bd d9d8 3dbd 1f40 443e
00000340: ec40 5dbd 4b6d c1bd 89b8 95bd 5e4a 99bc
00000350: 0b6f ddbd d9ad bdbd 981f 673e eca4 bdbd
00000360: 14e0 99bd 3533 b7bd 38ee 27bd 8daf 53be
00000370: 5038 19bd 653e 7fbd 24c9 86bc dbad f1bc
00000380: acac 31be 25ea 1ebe 1300 ffbd 1893 873e
00000390: 4ec6 edbc a808 993e 7171 363e 4b85 e3bc
000003a0: 6885 c6bd 48b0 60bd e5d3 533e ea56 d5bd
000003b0: 78fd e23d 63f1 edbd 199b 49bd e869 31bd
000003c0: a9cb 39bd 01c9 003d 4c30 abbd abbd 6abe
000003d0: b63b 45bd 6526 2cbd 9d12 9f3b b428 07bc
000003e0: 856b c4bc 70c3 c3bd 63f6 48bd 64a7 a2bb
000003f0: b1f0 19be 5e08 76bd 4769 77bd e4af a3bd

weight f4 [1, 512]
0.022605399 -0.0013832529 0.03707327 0.0045926305 -0.002006407 -0.008259242 0.015662162 0.06359362
0.05529927 -0.0020732374 -0.012147754 -0.024289029 -0.082720086 -0.014486771 0.0011231648 0.006535004
0.024759281 -0.004443534 -0.0013744566 0.0056369384 -0.015150219 -0.009406267 -0.00046594563 -0.0044744085
0.016113339 0.0015915497 -0.022846343 0.008519342 0.008054899 0.0082988115 -0.14812325 0.028902642
0.0037573518 -0.015872343 -0.01997321 0.0048355777 0.0038883842 -0.011052673 0.0014714281 0.03618124
-0.01657366 0.059354678 0.013954288 0.006821781 -0.004141409 -0.011137895 0.0020693217 0.09162102
-0.014740677 0.0020766766 -0.30612797 -0.0067763682 -0.0030956157 -0.012403509 0.029001532 0.0052238987
0.063721545 -0.08002231 -0.0012510761 -0.007710106 0.0362798 0.0034985328 -0.002383859 0.0052620326
-0.00883823 0.017716058 0.0061702128 -0.0014642308 0.00045507692 0.008709172 0.007844462 -0.0022822197
0.007898937 -0.0037065533 0.01815398 0.006748984 0.022716198 -0.03487523 0.00011891747 0.0033198346
0.0012250595 0.009178718 -0.003472209 -0.032062445 -0.0074083246 -0.016252952 0.00134476 -0.067327745
0.0031366642 -0.011354668 0.036551792 4.8515056e-05 -0.0020240466 -0.01203525 0.004998724 -0.001592973
-0.0413179 0.017654525 0.00417592 -0.021126168 0.013079055 0.007490379 -0.004266869 -0.0002680567
-0.000568595 0.01661346 0.06159204 0.013266018 -0.010218874 0.0032493228 0.03494394 -0.00865106
0.008046221 -0.0051900875 -0.019411713 0.024041077 -0.0006935895 -0.010049587 -0.002068274 0.026851082
0.006110803 -0.0015686782 -0.0028578816 0.05108381 -0.031795107 -0.0023562831 0.10350389 0.0037609239
-0.0058261175 0.0007084879 0.0051651807 -0.0023821823 -0.022960579 -0.017252002 -0.019113597 0.0010831859
0.0022641832 -0.004721928 0.014552949 0.057580315 0.05573384 -0.088277556 0.002041846 0.0066431155
0.0020121646 -0.007944448 -0.014668613 -0.0038411757 -0.02081579 -0.0070765493 -0.0039886124 -0.061912205
0.0034249842 -0.017324748 -0.01303842 -0.007232286 0.0558432 0.07992206 0.00619763 0.021887233
0.0052579576 0.0628452 0.014581144 -0.006420933 -0.00910204 0.01560646 0.022732746 -0.028242558
-0.005914843 0.03992801 -0.047753572 0.010828363 -0.03403532 0.0035996134 -0.006370365 0.14265953
-0.07931379 0.0033198057 0.0075256345 -0.016927088 0.05499418 0.0023875337 0.010438109 -0.03276773
0.023090404 0.021696484 -0.06740198 -0.0013329239 0.0009136765 -0.0024898213 -0.00058845186 -0.032479484
0.003187079 0.06921943 0.042171728 0.0062810276 -0.007877935 -0.0061467574 -0.0021680554 -0.009186883
0.015932696 -0.010294485 0.006345572 -0.0023715165 0.014240387 -0.04749334 -0.001612162 0.026033157
0.017415969 -0.022821689 -0.010513337 -0.09857884 0.006549195 -0.03372232 0.039187275 0.0070321322
-0.037383556 -0.014064267 -0.011355052 0.012592468 -0.0036485512 0.008002874 -0.00081247644 0.04117938
0.07238366 -0.0014707822 0.006653611 0.053507693 0.023182526 0.034538403 0.07420301 0.009631636
-0.0034139468 -0.00019383461 0.026811395 -0.01374037 0.0106096165 0.0010202682 -0.0028752645 0.004798045
0.005062812 -0.21257606 -0.00167578 -0.00065690186 0.0024579032 -0.03050075 0.052144367 0.0020334227
-0.038085774 -0.005560742 0.033611637 0.01635536 0.06652674 -0.016097717 0.0011731436 -0.0047084666
00000000: f52e b93c 444e b5ba 24da 173d c77d 963b
00000010: ec7d 03bb c651 07bc ef4d 803c 5f3d 823d
00000020: 7d81 623d 27df 07bb 6007 47bc c9f9 c6bc
00000030: 2669 a9bd ec59 6dbc 2837 933a 9623 d63b
00000040: fad3 ca3c 119b 91bb 1c27 b4ba 11b6 b83b
00000050: a038 78bc be1c 1abc 2a4a f4b9 0f9e 92bb
00000060: 1f00 843c 8c9b d03a 4128 bbbc b694 0b3c
00000070: b2f8 033c bdf7 073c 9fad 17be 3cc5 ec3c
00000080: e73d 763b b706 82bc db9e a3bc c473 9e3b
00000090: 43d4 7e3b 4516 35bc efdc c03a c832 143d
000000a0: 7cc5 87bc e41d 733d 87a0 643c 3f89 df3b
000000b0: a8b4 87bb b87b 36bc 759d 073b cda3 bb3d
000000c0: e182 71bc da18 083b cebc 9cbe 4c0c debb
000000d0: d0df 4abb 1638 4bbc 9f94 ed3c 3d2d ab3b
000000e0: 7180 823d bde2 a3bd 26fb a3ba 0fa5 fcbb
000000f0: 219a 143d a447 653b 843a 1cbb 216d ac3b
00000100: 39ce 10bc 4421 913c 7f2f ca3b 6feb bfba
00000110: 6497 ee39 eab0 0e3c 0f86 003c 4b91 15bb
00000120: 8b6a 013c a5e9 72bb a8b7 943c 9526 dd3b
00000130: 5217 ba3c 54d9 0ebd 5563 f938 9591 593b
00000140: 2d92 a03a 5562 163c 008e 63bb e953 03bd
00000150: 88c1 f2bb e924 85bc a842 b03a 21e3 89bd
00000160: 7e90 4d3b ee08 3abc 55b7 153d a57c 4b38
00000170: dea5 04bb 7f2f 45bc 56cc a33b 4ecb d0ba
00000180: f53c 29bd 39a0 903c 28d6 883b c910 adbc
00000190: 8849 563c da71 f53b 17d1 8bbb f689 8cb9
000001a0: c40d 15ba f318 883c ef47 7c3d b659 593c
000001b0: 106d 27bc 97f2 543b 6021 0f3d 2dbd 0dbc
000001c0: 4cd4 033c 9c11 aabb 5005 9fbc cbf1 c43c
000001d0: 01d2 35ba 06a7 24bc e18b 07bb cdf6 db3c
000001e0: 223d c83b 1b9c cdba 4c4b 3bbb 423d 513d
000001f0: 963b 02bd df6b 1abb d9f9 d33d d579 763b
00000200: 04e9 bebb d1b9 393a ad40 a93b 631e 1cbb
00000210: d317 bcbc 1254 8dbc 1e94 9cbc b0f9 8d3a
00000220: b162 143b 67ba 9abb 7e6f 6e3c 56d9 6b3d
00000230: 2b49 643d ddca b4bd 7ed0 053b 7eae d93b
00000240: 85de 033b 6e29 02bc 9f54 70bc 3cbc 7bbb
00000250: e085 aabc 66e2 e7bb e8b2 82bb a797 7dbd
00000260: b375 603b a1ec 8dbc 199f 55bc d0fc ecbb
00000270: d7bb 643d 2dae a33d 7d15 cb3b db4c b33c
00000280: f24a ac3b fcb4 803d c0e5 6e3c b166 d2bb
00000290: b920 15bc 3db2 7f3c 063a ba3c f05c e7bc
000002a0: 4dd1 c1bb 8e8b 233d 4099 43bd 7269 313c
000002b0: 9f68 0bbd 7ee7 6b3b 7fbe d0bb 5715 123e
000002c0: 456f a2bd 1991 593b 9999 f63b adaa 8abc
000002d0: 9441 613d 2b78 1c3b 9a04 2b3c 7537 06bd
000002e0: 1628 bd3c d3bc b13c 0d0a 8abd 81b5 aeba
000002f0: cb83 6f3a 452c 23bb 5642 1aba 3509 05bd
00000300: 50de 503b ebc2 8d3d 43bc 2c3d 14d1 cd3b
00000310: 7412 01bc bd6a c9bb ef15 0ebb 9584 16bc
00000320: 4985 823c 33aa 28bc 84ee cf3b 726b 1bbb
00000330: 8350 693c 6088 42bd 2e4f d3ba 7d43 d53c
00000340: efab 8e3c 8df4 babc 2240 2cbc b4e3 c9bd
00000350: a19a d63b 6a20 0abd d682 203d cd6d e63b
00000360: 801f 19bd d06d 66bc 8a0a 3abc a450 4e3c
00000370: 881c 6fbb 7d1e 033c 5ffc 54ba b6ab 283d
00000380: e23d 943d 43c7 c0ba 8906 da3b e22a 5b3d
00000390: 48e9 bd3c 2478 0d3d bff7 973d 02ce 1d3c
000003a0: 86bc 5fbb 1540 4bb9 92a3 db3c 4a1f 61bc
000003b0: f5d3 2d3c 85ba 853a ef6e 3cbb eb38 9d3b
000003c0: f2e5 a53b 8aad 59be d9a5 dbba f033 2cba
000003d0: c614 213b b5dc f9bc 5595 553d 2c43 053b
000003e0: d4ff 1bbd e336 b6bb 5bac 093d adfb 853c
000003f0: 2c3f 883d 5cdf 83bc 2bc4 993a 7b49 9abb
