src/resources/models_and_scalers/validity_model.pt (torch, 157391 bytes, 5 tensors)

weight f4 [128, 39]
00000000: a1cf 0f3e 14e5 ba3e 7082 a2bb d0f4 2f3e
00000010: 7c6f a43e ce4a f23e 9752 a7be 04bc 2b3e
00000020: 5ea0 5dbe a9d6 bf3e f6b6 ecbe 57ae 88be
00000030: b695 fb3e 2763 ecbd ecf6 86bd b969 b93d
00000040: 3d64 e53c 1e04 05be 9f4d ed3e 5395 dcbd
00000050: 6c68 ffbe 8c6f 2bbf f620 8d3e b0ca b83d
00000060: 729b 4abd 59ae c5bd 230a 17be 18dd cfbd
00000070: a459 0bbe 27d8 f3be d3b0 433d c4f8 003d
00000080: 9fde 3a3c 889d 97be 89ef d83e 9163 fe3e
00000090: db78 4b3e c0fe de3e bec0 9c3e 9bf6 17be
000000a0: f561 983e b1a5 fd3e 8df9 de3e cc02 193f
000000b0: 2960 4e3d 3cbb 86bd ff70 503f 4928 7cbd
000000c0: 16b6 b73e 41fe 4a3d 51f5 023e 0254 56be
000000d0: 482e 283d 2337 8ebd 7545 ab3e c0cb 2e3d
000000e0: e707 2abd 495b 80bc d91b 503e 1694 94be
000000f0: ed32 36be 7eb6 893e fa4d b43d 7bec 4fbe
00000100: b4a4 3d3e 74c4 5dbf d0f0 edbe e50b 8fbe
00000110: ec07 da3e 880c a83d 8b19 02bf fd76 2e3f
00000120: 28fb c2be 2403 e53e 436f aabd 6331 b23d
00000130: ae7d 27bf 7f46 21be 08d2 97be 3c85 183d
00000140: 8962 423f b88d a4be c6bb f1be 8bb8 e8be
00000150: 05a1 6abe 6a1c dd3e 385c fe3e 93a0 343e
00000160: 7833 c53e c192 a5be 7407 a73d 65e3 9f3c
00000170: c5d3 debb 2f2b 0c3f 3d6f 373e ad10 323d
00000180: 55ff 03bf 65e6 813b 94eb ce3c ccc6 613f
00000190: ec23 6b3f a755 21be 27a7 14be f57c 0ebc
000001a0: 24ff e5be aa83 11bf 179d 643e 9eb1 91be
000001b0: b92f 713e fb22 70bd 4d45 5c3e 31e4 093f
000001c0: d09b 0a3f a2f5 b5bd c4c0 eebd 799f 183f
000001d0: b68c b23e d918 ee3e 2a19 19bf 7aac 103e
000001e0: 3c0f 5dbd c3da afbe 7e88 083e 0910 e9be
000001f0: 2af4 e13e feb6 133f d489 a83e 4329 2ebe
00000200: da03 e4be cbb9 33bc f19f bb3e 025e 303d
00000210: 5b15 853e ec3f 72bc 7589 2ebe 4e25 6e3e
00000220: 110f 773d 4a58 1abe 57d6 f13d 0fb3 45be
00000230: e893 8b3e ce44 18bf 6f19 0d3f f027 63bc
00000240: eb01 a23d e488 3b3e 64d5 18bf 3e53 133f
00000250: e311 abbe eff4 28be d7d0 c13e 5871 443d
00000260: 02fe 163f 692e 953e 1e37 dfbd 19d3 03bf
00000270: ebff 333f 5f0a 2abf 878e 113f 199d 533c
00000280: ab16 9e3c 8eb6 4bbe 9022 03be 03d0 823e
00000290: b8d5 0a3f faf0 003e 2858 c8be fe65 0bbf
000002a0: 85cb 293f 12c4 a23d 6f66 623d 9d8b e03e
000002b0: 7c69 433e d0f4 523e 0329 9d3c b09f 9d3e
000002c0: f12d 753e 752a bc3e 6ec5 1fbd c66a 0e3f
000002d0: 0db7 b8be 9d6a bc3e 477b afbe ac3c d9be
000002e0: 1a79 7e3d 03da f1be 31ca efbc a1cc edbe
000002f0: b5c6 88bd 0a01 b13e 645d 00be f078 cbbc
00000300: 54e0 0cbf f33a a7be 2ecd 01be f878 5f3d
00000310: 284f 9b3e 739e 1abe 6739 183f de5f 3e3f
00000320: 6316 b33e 532c 0abf 304e 243e 3cef 6d3e
00000330: 79c3 083f f73f 493f 1900 0cbe a2e8 143f
00000340: 1ced e43d 51ef 31be 30ff eabb 9871 a23e
00000350: 2720 adbd 8cac b2be 5211 f63d 51ca 073f
00000360: 8633 e1be 1f2d 3f3d 706c 66be 59b0 083e
00000370: df3a a73e ed5b bbbe a2cb cb38 3c27 8abb
00000380: 71f4 40bd 431b 3a3e 44ea 823e 28bc ccbd
00000390: 2a4f 08bf 645d 413f 6946 163f 2f37 003e
000003a0: 522c cd3e 5c2e 76be f6a3 7fbd 4d81 a93e
000003b0: 50a0 65be 6ba5 4c3e e44a bbbd 753d 14be
000003c0: c025 0b3f f3ef 893e 5367 a63d d601 743e
000003d0: 0746 b5be 3d58 8abe 3b92 e7bd d097 0c3c
000003e0: 5bba dc3d 46b1 90be de2f 533d 241c 833b
000003f0: b204 583e e37b 143e 5195 943e 2425 07bf
0.14044048 0.36502898 -0.004959397 0.17183232 0.32116306 0.47322696 -0.326802 0.16770941
-0.21643206 0.3746846 -0.46233338 -0.2669551 0.49137658 -0.11542349 -0.06590065 0.09053368
0.028001899 -0.12989852 0.46348283 -0.10770669 -0.49884355 -0.6696708 0.2756421 0.090230346
-0.04946465 -0.09652395 -0.1474996 -0.10149592 -0.13608414 -0.4762585 0.047776055 0.03148724
0.011405616 -0.29612374 0.4237025 0.49685338 0.19870321 0.43553734 0.306158 -0.14840166
0.29762235 0.49540475 0.43549767 0.5976989 0.050384674 -0.06578681 0.8142242 -0.061561856
0.35881108 0.04955888 0.12788893 -0.20930484 0.041059762 -0.0694411 0.3345143 0.04267478
-0.041511443 -0.015668528 0.20323123 -0.2901923 -0.17792864 0.26897043 0.08803935 -0.20305054
0.1851986 -0.8662789 -0.46472788 -0.27938762 0.4258417 0.08205515 -0.50820225 0.6815031
-0.38082242 0.4472896 -0.08322003 0.08700826 -0.65426147 -0.15749548 -0.2965243 0.037236437
0.759316 -0.32139373 -0.47213572 -0.45453295 -0.22912987 0.4318574 0.49679732 0.17639379
0.3851583 -0.32338527 0.081557184 0.01951761 -0.0068001472 0.5475339 0.17913528 0.043472935
-0.5156148 0.0039642327 0.025258817 0.88193965 0.9185169 -0.1575533 -0.14516889 -0.008696784
-0.4492122 -0.5684153 0.2232555 -0.28455824 0.23553361 -0.05862711 0.21510811 0.5386382
0.54144 -0.08884741 -0.11657861 0.59618336 0.3487298 0.46503332 -0.5980402 0.14128295
-0.053969607 -0.3434659 0.13333318 -0.45520046 0.44131595 0.577011 0.32917655 -0.17007928
-0.44534189 -0.010969589 0.36645463 0.043058403 0.25992855 -0.014785748 -0.17044623 0.23256418
0.060317103 -0.15072742 0.1180846 -0.19306587 0.2726128 -0.5947999 0.55116934 -0.013864502
0.07910522 0.18313938 -0.5970061 0.5754889 -0.33412084 -0.16499685 0.37854645 0.047959656
0.58981335 0.2913697 -0.10899185 -0.51493984 0.70312375 -0.66422075 0.56858104 0.012915873
0.019297918 -0.19893858 -0.12806153 0.25549325 0.5423236 0.12591925 -0.39129758 -0.544525
0.6632617 0.07947554 0.05527347 0.43856516 0.19083208 0.20601201 0.019184595 0.30785894
0.23943307 0.36751142 -0.039006643 0.55631673 -0.36077157 0.3680009 -0.3427374 -0.424291
0.06212721 -0.47236642 -0.029271217 -0.46445182 -0.06678525 0.34571105 -0.12535626 -0.02483794
-0.550298 -0.32662162 -0.12675926 0.054558724 0.3033383 -0.15099506 0.5946259 0.7436503
0.34978017 -0.53973883 0.16045451 0.23235792 0.5342327 0.7861323 -0.13671912 0.5816747
0.111780375 -0.17376448 -0.007171534 0.3172729 -0.08453398 -0.34897268 0.12015022 0.53043085
-0.43984622 0.04667389 -0.22502303 0.13348521 0.32662103 -0.3659357 9.717724e-05 -0.004216103
-0.047108117 0.18174462 0.25569355 -0.099968255 -0.53245795 0.7553313 0.5870119 0.12521051
0.40072876 -0.24041122 -0.062412225 0.3310646 -0.22424436 0.19984977 -0.09145144 -0.14476569
0.54354477 0.2694088 0.08125176 0.23828825 -0.3540499 -0.27020445 -0.11307188 0.008581117
0.10777732 -0.2826025 0.05155932 0.0040011574 0.21095541 0.14500384 0.2902017 -0.5279105

bias f4 [128]
00000000: 59e5 aa3c b7a1 4fbf f6c1 0dbf 0290 b5be
00000010: 8132 90bd b015 c3bd 5dc8 09be fd3d 10bf
00000020: e6e5 a6be 9f4a d1be b291 b73d 72ad 99be
00000030: fde2 9dbe fdcd 0cbe ab3b 47be 79f7 b0be
00000040: e371 d4be 245a eabe 0f9b 71bd 1476 98be
00000050: 1bc5 05bf 4a21 a3be 7b90 22bf bd80 afbe
00000060: b054 453e 7adb a5be 6661 dbbc a691 c0be
00000070: 975e 6abc 7a82 21bf 6c48 2cbf f253 7bbe
00000080: 5532 fbbe 9cea 1cbf a9c8 fbbc bc95 16bf
00000090: 4771 dcbe 68e7 d4be c21a f3be f558 17bf
000000a0: 9528 bfbe adf4 acbe 7ea9 053e f79c 9bbe
000000b0: 993e eebe bb92 0abf 0dfa 7ebe 1ce9 14be
000000c0: 730d 25bf 56dd f0be 112e 78be cbbe 01be
000000d0: f8d5 8fbe 6128 18bf 596f a2bd 7928 02bf
000000e0: fec1 81be 5e01 c8be ee91 4c3e 5e56 57be
000000f0: c196 ffbe 0186 72be dba7 dcbe f85c 31bf
00000100: 3cb8 edbd 9a06 1abe 8cea babe 1c33 a4be
00000110: 80af 53bf cfd6 c1be 6849 3cbe b258 95be
00000120: 594b 0bbf 97d3 a7bd f628 18bf 925a ddbe
00000130: 4264 03bf fb14 d8bd 4a4d 30be bf69 90bc
00000140: 362a fbbe de03 f3be f9c9 7abe f216 91be
00000150: c298 90be 1db3 bcbd 7cd9 c8be d59e d9be
00000160: caa2 72be e93a fbbd 0469 b3be fa22 febd
00000170: d8aa 12be f4d9 f9be 2c50 aebd e4cb dfbe
00000180: aaa4 07bf 7731 d2be 3f0a 34be ee3a 18bf
00000190: 1765 c7be d758 8ebe 019f 2d3d 68ea 7ebc
000001a0: e5b1 eebe f05d 11bf c39c a9be 0a68 5cbe
000001b0: 706e 60be 3233 35bf 4187 2abf c9d3 5bbe
000001c0: ea3d d8be e908 f9be a77e a5be a441 13bd
000001d0: f9c4 f4be 1f6a 1bbf 118b 4bbe 7ecb 0abf
000001e0: fc7b e9be 1e88 7dbe 3e00 e1be 59c8 15bf
000001f0: 81f6 afbe d868 aabe d514 f8bd 9354 7cbe
0.020861315 -0.8110613 -0.55374086 -0.35461432 -0.07040883 -0.09525621 -0.13455339 -0.56344587
-0.32597274 -0.40877244 0.08963336 -0.3001514 -0.3083724 -0.13750453 -0.19456355 -0.34563807
-0.4149314 -0.45771897 -0.058985766 -0.29777586 -0.52253884 -0.31861335 -0.6350171 -0.34277907
0.19270587 -0.3239401 -0.026779842 -0.3761112 -0.014304779 -0.63089716 -0.67298007 -0.24543741
-0.49061838 -0.61295485 -0.03073533 -0.58822227 -0.43055174 -0.415828 -0.47481352 -0.5912011
-0.3733565 -0.33780423 0.13052937 -0.30393192 -0.46532133 -0.5413014 -0.24900074 -0.14542049
-0.64473647 -0.47043866 -0.24236323 -0.12670438 -0.28092933 -0.59436613 -0.07931394 -0.50843006
-0.25343317 -0.39063543 0.19977543 -0.2102904 -0.49919704 -0.23683931 -0.43096814 -0.69282484
-0.116074055 -0.15041581 -0.3650707 -0.32070243 -0.82689667 -0.37859198 -0.18387377 -0.29169232
-0.54411846 -0.081946544 -0.594375 -0.43233162 -0.51324856 -0.10550877 -0.17216983 -0.017628549
-0.49055642 -0.47463888 -0.24491109 -0.28337818 -0.28241545 -0.09213851 -0.39228427 -0.42503992
-0.23694912 -0.122670956 -0.35041058 -0.12409015 -0.14322984 -0.48799098 -0.08511385 -0.43710244
-0.5298563 -0.41053364 -0.17582034 -0.5946492 -0.38944313 -0.27802154 0.042387966 -0.0155588165
-0.46620098 -0.5678396 -0.33127412 -0.21524063 -0.21917129 -0.7078124 -0.6661263 -0.21467508
-0.42234737 -0.4863961 -0.3232319 -0.03595127 -0.47806528 -0.607088 -0.19877268 -0.54216754
-0.45602405 -0.24758956 -0.43945497 -0.5850883 -0.34367755 -0.33283114 -0.121133484 -0.24641638

weight f4 [256, 128]
00000000: 9329 133e d035 a73e 8258 0f3f bc8b 973d
00000010: 412c f33e 9bcd 8e3e d9a9 9f3e 886d 383e
00000020: 7eb5 8e3c 86b8 d1b9 8b8c 963d e51a 3c3f
00000030: 7c36 883e 5070 7e3e 8f49 923e 418c 77bd
00000040: 5367 18bd 547a 763d 0923 443d c2e4 2fbe
00000050: d8e6 dd3e 8c5b 75be 5e40 0cbf a6e2 e63d
00000060: 8673 74bd 6673 463e 6289 e93d 3bcb c63e
00000070: 35a2 6b3e 9214 6dbe 715d e43e c45b d83d
00000080: ca8a 8dbe a955 2f3f ec33 903e dd72 00bf
00000090: 886f 0abe 7c95 a43e db5a 653f f727 d33e
000000a0: 466a 773e 33f9 fb3e 7551 ffbd 9485 84bd
000000b0: 3d03 d23e fc75 da3e 0eb8 8e3e 8881 1dbe
000000c0: babc 97be e1d9 ea3d eb1d eb3e 33fe 9d3e
000000d0: 78dd ca3e 855b aa3e 63b3 bcba 6e1d f1bb
000000e0: 5a8a 3c3f 05e6 01be a4f9 dcbe 1e3e 463e
000000f0: 8149 7e3f b226 573d 7e5b 3e3f cf50 0ebe
00000100: f291 7dbe cccc cd3e cffd 773e d42b 70be
00000110: 33c0 acbd 3f0c 723e a39f 2a3d b0a3 b7be
00000120: db3a 89bd 19f9 673e 096c fdbd ae07 943e
00000130: f525 21be ac85 d9bc 4691 8d3e fec4 5dbe
00000140: 2636 39be 593a 22be bc37 2a3f 6526 8f3e
00000150: 5713 033f ce76 ed3c 3e9f 963d 78b7 3ebe
00000160: d623 b33e b4a6 ff3e bfcb d9bd adf5 0e3f
00000170: 78af ea3e a332 903e 11fc 8c3e b4d4 0b3e
00000180: 3964 f93e 59b6 c23e eac7 b13e 8d8e 81bd
00000190: e71a 073e ac52 083f 7e7d 043f 32c9 8c3e
000001a0: b5c2 4b3d a273 293c a2de aa3e 192d 88bd
000001b0: e249 0a3f 5e47 2ebe 7921 b3be a344 c2be
000001c0: 553a 33be a3d7 6cbe d3df b53e 1ce8 c93d
000001d0: b19a 50bd 5588 a8be ddd2 a43e 29c2 073f
000001e0: cc85 e13b b821 86bd 2bc7 c73d 9a6d 0e3f
000001f0: ceee fbbd d44a 0abd a1c5 313d e9dc 8e3e
00000200: e80c f83e 869b 693e 9bba be3e af7f 363e
00000210: 05e1 dd3d b296 3c3e 9168 b83e 6cd1 9e3d
00000220: 17fb 1c3f 7b38 a73e 9682 7b3e 9f04 053e
00000230: b99a 9f3d 4099 f53d b8d0 9e3e 463c f63e
00000240: 37dc 8f3e 8408 96bd 5a8c 16be 4b6a 1fbe
00000250: 54ea e83e 2fa6 1abf e6f5 8bbe 5a55 4abd
00000260: ae27 8dbe 093b 013e 7ebd 7a3f 080b 473d
00000270: d903 073f 34cd f7bd 852f d2bd bf78 403e
00000280: 97ba ecbe 6981 99bd f5e6 6fbe 7f4f 1bbd
00000290: ee53 753e 947a 403e 3519 9f3d 91ef aebe
000002a0: 4278 8f3d a528 083f f18b 81be 9f89 6dbe
000002b0: 3656 aabd 8c67 883d a899 903d b099 a73e
000002c0: 06a6 98be 0988 453f a758 e53e 4a0e 2f3e
000002d0: 0d47 1a3e bcb9 453d 6630 c13e 20a0 cc3c
000002e0: 1322 093f 84fc 32be 91a9 11bd 87b6 c93c
000002f0: 9759 ed3e 60a9 86be 5999 80bd 2436 c3bd
00000300: 2277 093f d1fe 2b3d 918e 3b3f cf8b 6dbe
00000310: 0c9c 30be f0b5 fa3e 3b4f 823e 63b4 bcbe
00000320: 2d5f 4bbe c1c0 68be 4562 ffbe 0bfd 473e
00000330: 8b26 b3be a72e ba3d db00 eb3e e347 f83c
00000340: 6ef6 90be 846f 8c3e 6740 c43d 7b85 0f3d
00000350: e8cc 383e 0d3e 6f3e 5929 6b3e a70b 033e
00000360: 2762 b33e 7d23 f83e 73cf 83be 6397 0e3f
00000370: 1ab4 ba3e 9d01 4fbe 5095 c7bd 6867 b83e
00000380: 1f43 613e 8611 893e 1556 073e 59bd a0bd
00000390: 9540 173e 7bf7 683e fe57 023f 5def 273e
000003a0: 8d18 a0be 0fda e5bd cbbc 873f a6f9 53be
000003b0: 7fb8 6c3f 6dcf c5be bd00 12bf 8698 163c
000003c0: 435b 80be f4a9 40be 9b58 a53e d4e9 a83e
000003d0: 4005 123f 0064 ee3c 6d6c e83d f59e 6e3d
000003e0: 2cdc 46be dce0 50be 8150 2d3e 20c8 423f
000003f0: ca5f 9bbd 85d6 3f3f 0def 4a3e c134 4c3e
0.14371328 0.32658243 0.5599443 0.07399699 0.474947 0.2789124 0.3118427 0.18010533
0.017420527 -0.00040001067 0.07351025 0.7347854 0.26604068 0.24847531 0.28571746 -0.06043649
-0.037207913 0.060175255 0.047884975 -0.17177108 0.43340182 -0.23960704 -0.54785717 0.112736985
-0.059680484 0.19379959 0.11403157 0.38826928 0.23011096 -0.23152378 0.4460254 0.10564378
-0.2764495 0.6849008 0.28164613 -0.5017527 -0.13519108 0.32145298 0.8959176 0.41241428
0.24161634 0.4921356 -0.124667086 -0.064707905 0.41018096 0.4266814 0.27874798 -0.15381444
-0.29636174 0.11467338 0.45921263 0.30858 0.39622092 0.3327295 -0.0014396723 -0.0073582446
0.7364861 -0.12685402 -0.4315921 0.19359633 0.9933091 0.052527137 0.74358356 -0.13898014
-0.24762705 0.4019531 0.24217914 -0.23454219 -0.084350966 0.23637484 0.041656148 -0.3586707
-0.06700679 0.22653617 -0.12374122 0.2891211 -0.15737136 -0.026552998 0.27649897 -0.21657178
-0.18087062 -0.1584257 0.66491294 0.2795898 0.51201385 0.028987315 0.07354592 -0.18624675
0.34988278 0.49931872 -0.106345646 0.5584362 0.45836997 0.28163633 0.2753606 0.13655359
0.48709276 0.38029745 0.34722835 -0.063260175 0.13193856 0.5325115 0.51753986 0.2749725
0.049746234 0.01034251 0.3337298 -0.06649227 0.54018986 -0.17019412 -0.34986475 -0.3794299
-0.1750272 -0.23129134 0.35522327 0.098587245 -0.050928775 -0.32916513 0.32192126 0.5303064
0.006882405 -0.065494 0.09754785 0.5563599 -0.12301408 -0.033762768 0.043401364 0.27902916
0.48447347 0.22813234 0.37251744 0.17822145 0.10833935 0.1841686 0.36017278 0.07754788
0.6132063 0.3266028 0.24561533 0.12990044 0.07793183 0.11992121 0.31018615 0.4809286
0.28097698 -0.07325843 -0.14701977 -0.15567891 0.45491278 -0.60409826 -0.27336043 -0.049397804
-0.27569336 0.12620176 0.9794539 0.048594505 0.52740246 -0.12099686 -0.1026297 0.18796061
-0.46236107 -0.07495386 -0.23427947 -0.03791761 0.23957798 0.1879676 0.0776848 -0.3416715
0.07005359 0.5318702 -0.2530208 -0.2319703 -0.08317225 0.06660375 0.070605576 0.32734442
-0.29814166 0.771607 0.447942 0.17095295 0.15066166 0.048272833 0.37732238 0.024978697
0.5356762 -0.1747914 -0.0355621 0.024623169 0.46357414 -0.26301098 -0.06279249 -0.09531811
0.5369741 0.04199106 0.73264414 -0.23197864 -0.17247027 0.48966932 0.25451073 -0.36856374
-0.19860525 -0.2272978 -0.4987966 0.19530122 -0.34990343 0.090909295 0.4589909 0.030307716
-0.2831301 0.2742883 0.09582596 0.035039406 0.18046916 0.23363514 0.22964992 0.12797414
0.35035822 0.48464575 -0.2574421 0.5569975 0.36465532 -0.20215459 -0.09745276 0.36016393
0.21998261 0.26771182 0.13216431 -0.07848615 0.1477073 0.22750656 0.50915515 0.16399904
-0.3126873 -0.11223232 1.060449 -0.20700702 0.9246902 -0.38634816 -0.57032377 0.009191638
-0.25069627 -0.18814832 0.32294163 0.32990897 0.5703926 0.029100418 0.113488056 0.058257062
-0.19419926 -0.20398277 0.16925241 0.76086617 -0.0758663 0.74936706 0.19817753 0.19941999

bias f4 [256]
00000000: be3d f03c e728 1b3d e05c d9bd c69e 10bd
00000010: 4666 49be b073 373e 5e87 8d3e 22c5 b0bd
00000020: 74a6 1a3e e5f3 96be 49e6 5cbe 1200 04bf
00000030: 1464 ee3d 4726 7abd 242d 673d 8152 07bf
00000040: e651 1dbe 5cb8 983d 13f3 8ebe ed17 d1be
00000050: e1e0 0ebd 5fed 12be 83d2 09be bbdb 843e
00000060: fdd6 44be 99b9 2a3e 8ff9 b8be 16a2 4cbd
00000070: e0d4 4e3e 62ca a9be 5abb 39be 3f7a e5be
00000080: b1f1 ff3e 5d2b 89be 57c8 373d eb38 d0bd
00000090: e06b 63be c3db ba3d 1dbc 8dbe c117 a93d
000000a0: 4cb3 29bf 12fb 873e 744d 5d3e 97a3 d3bd
000000b0: ef04 fe3d 648a bdbe 56f4 4b3e 9cf4 0cbf
000000c0: 4045 613e ec98 adbe afd5 2c3e f731 a9bd
000000d0: 938c 4fbe 6e3d fbbe 5879 c83e 959f be3e
000000e0: b8e7 72bd 075c 78be 00d7 31be c03f 7b3e
000000f0: ba10 843e 25ca 82be be39 d3be 6090 673e
00000100: 68c3 e2be 70dd e2bc 2403 993c bfe4 39bd
00000110: b68d a7be 8c3f 963d 4686 e13d 79ac 1b3d
00000120: f7c0 603d 7da8 453d 6385 9abe 3641 bcbe
00000130: 2fa6 1e3d aa94 733e 0689 a6be f5db d9be
00000140: f23f e8bd 39c9 24bf 972c 2d3e 1425 1b3f
00000150: 1be0 6f3d 28e3 503d e64d 113e 4eec febe
00000160: 4026 22be 600d 083e 0b01 52be e08b c83d
00000170: dae4 263e afc8 08bf e272 103e 9e51 a8be
00000180: 3171 833e b4ba afbd 3d8e a7be 75fc cc3d
00000190: 8424 6ebf 17f4 ffbb 2c5f 453e d9c8 af3d
000001a0: 8b15 2cbe 5044 abbe 1237 5a3e 8f4b 9cbe
000001b0: 3213 93bd 43f1 723c 4360 823c ebfb 013f
000001c0: 1277 01be 7ad7 debe ea35 abbe f385 71be
000001d0: d52b dfbd 6d3e 9a3e d04a 10bf 1ecd 823e
000001e0: cec5 efbd d220 043f e31b 0dbf be9f b1be
000001f0: 4470 c8be e9da e5bc 94db cdbe d1af 45bf
00000200: 0fdf 6d3e b065 c6be 706f e73d f76a ef3d
00000210: 5c71 d93e fa18 b8be 39d0 03bd 86c9 98bd
00000220: 85d9 a9bb 8844 a0be d166 33bf b340 cbbd
00000230: 59ce 1ebe e8b5 ee3d d3bd 5bbe 9fe4 e43e
00000240: 98ed 0dbf d337 2abe dab5 a73e 06b0 ecbe
00000250: ce6e 793e 71e4 a8be 58c2 26bc 1129 1b3d
00000260: 3618 3d3e a53e cb3c 24b2 b5be 8338 733e
00000270: ccf8 d83d e6f1 85be 4c91 1c3d 4061 33bf
00000280: 5353 d4be 0363 85be c044 4d3e 1ced 09be
00000290: ef60 6dbe 1014 60be 1a23 c1be 4a71 9f3e
000002a0: 6a8f 9cbe 2f05 edbd d475 07be ed9a e1bd
000002b0: a88d 733e fcda c3bd 7b4e b33e 8170 25be
000002c0: baf9 c7be d361 37be 5a80 973d c193 d63e
000002d0: 29fb f03d fefd c6bd 7e0e 14bf 97a5 b83d
000002e0: 469e d6be 1d0d 05bf 938e 5fbe 5d53 4dbe
000002f0: 16c7 593d 43ef df3d 0ac1 f5bd d70d 2d3e
00000300: 9415 c6be 0899 cebe a465 b2be 4ae3 3cbf
00000310: fb57 7f3e b144 f63d 53d8 a13e 6a47 c33d
00000320: 9599 913e 3795 63bd 5c1f c3be da5b bbbe
00000330: f732 1abf 3f44 a6be ca74 143d 352c 01bf
00000340: 03d5 c73e 9134 5bbf 523d f0bd c72f 20be
00000350: b61c edbd 41b8 7a3e ce09 b7be 72bb c1bd
00000360: f7c2 36bf 77af 2c3f 72a9 4f3d 9171 9c3d
00000370: efd5 473e 0532 863e 0819 de3d 7cbb 98be
00000380: d18c aa3d 20bb a0be 74a9 953e 5017 9bbe
00000390: a955 24bf f09c 293e bf41 883e eaf8 be3e
000003a0: 5ede 53be 58a8 b0be 51c7 34be 9ba5 77bd
000003b0: 99f6 b73d 657a 3e3e be8d 3cbd dc9c f63e
000003c0: f999 a03d cb54 19bd bea2 e63c 96b7 a5be
000003d0: 6b43 183e c6ed 423e 06f5 d5bd abb0 aebe
000003e0: 876e d73c 1913 773e 070c 8e3e fd6c 6ebe
000003f0: 162d fe3e 15a2 0fbf c296 d3bd ee22 0abe
0.029326316 0.037880804 -0.106134176 -0.03530767 -0.1966792 0.17915225 0.2764234 -0.0863135
0.1510256 -0.29482952 -0.21572222 -0.5156261 0.11640182 -0.06107166 0.056439534 -0.52860266
-0.15363273 0.07457039 -0.27919826 -0.40838566 -0.03488243 -0.14348362 -0.1345921 0.2594889
-0.19222637 0.16672362 -0.36127898 -0.049959265 0.20198393 -0.33162218 -0.18137875 -0.4481983
0.49989083 -0.26790896 0.044868793 -0.10167106 -0.2220912 0.091239475 -0.27682582 0.08256484
-0.6628921 0.2655874 0.21611577 -0.10333937 0.12403285 -0.37019646 0.19917426 -0.55060744
0.21999073 -0.33905733 0.16878389 -0.08261483 -0.20268469 -0.49070305 0.39155078 0.37231126
-0.059303015 -0.24253856 -0.17367172 0.24536037 0.2579401 -0.2554485 -0.4125499 0.22613668
-0.44289708 -0.02769348 0.018678255 -0.045384165 -0.32725304 0.07336339 0.11011939 0.03800628
0.054871526 0.048256386 -0.3017989 -0.36768502 0.038732704 0.2378718 -0.32526416 -0.42550626
-0.113403216 -0.6436954 0.16911541 0.6060345 0.058563333 0.050997883 0.14189872 -0.4978966
-0.15834904 0.13286352 -0.2050821 0.09792304 0.16298237 -0.5343122 0.14106324 -0.3287477
0.25672296 -0.08580533 -0.32725707 0.1000909 -0.9302447 -0.00781108 0.19274586 0.085832305
-0.16805093 -0.33450556 0.2131007 -0.30526397 -0.071813956 0.014828029 0.015915042 0.5077502
-0.12643078 -0.4352377 -0.3343957 -0.23586254 -0.10897032 0.30125752 -0.56364155 0.25547117
-0.1170765 0.5161258 -0.55120677 -0.34692186 -0.39148152 -0.028058486 -0.40206587 -0.772214
0.23229621 -0.38749456 0.11300552 0.11690324 0.424693 -0.35956556 -0.032181 -0.074603125
-0.005183401 -0.31302285 -0.7007876 -0.0992445 -0.15508403 0.116557896 -0.21459131 0.44705674
-0.55440664 -0.16622858 0.3275593 -0.46228045 0.24358675 -0.32986787 -0.010178171 0.03788096
0.18466267 0.024810145 -0.35487473 0.23752026 0.10594329 -0.26161116 0.038224503 -0.70070267
-0.4146982 -0.26052102 0.20045757 -0.13469356 -0.23181508 -0.21882653 -0.37722093 0.3114112
-0.30578166 -0.11573254 -0.13228542 -0.11015878 0.23784506 -0.09563252 0.35020813 -0.16156198
-0.39057714 -0.1790841 0.07397528 0.41909602 0.11766655 -0.09716414 -0.57834613 0.09015959
-0.41917628 -0.51973134 -0.21831731 -0.20051332 0.05316838 0.109343074 -0.1199971 0.1689981
-0.38688338 -0.4035113 -0.3484317 -0.73784316 0.24935906 0.120248206 0.31610355 0.095351055
0.28437486 -0.055562224 -0.38109863 -0.36593515 -0.60234016 -0.32473943 0.03624419 -0.5045808
0.39029703 -0.85627085 -0.11730446 -0.15643226 -0.11577742 0.2448435 -0.35749668 -0.094595805
-0.7139124 0.6745524 0.050698705 0.076388486 0.19515203 0.26210037 0.10844618 -0.2983054
0.0832764 -0.31392765 0.29230845 -0.30291224 -0.6419321 0.16563773 0.2661266 0.3729928
-0.20690295 -0.34503436 -0.17654158 -0.060460668 0.08982582 0.18601377 -0.046033613 0.4816655
0.07841868 -0.03743438 0.028153773 -0.32366627 0.14869468 0.19036016 -0.10447125 -0.34119162
0.02629782 0.24128379 0.2774355 -0.23283763 0.49643773 -0.5610669 -0.10331489 -0.13489887

weight f4 [1, 256]
00000000: 4fe5 52bd d4a9 b7bd 9b86 0f3f 487f 033f
00000010: 5dca f83d f340 883f 7e76 cbbd 2d9d 5b3f
00000020: f429 433d 9399 95bc 029e 8c3d 0039 fb3c
00000030: b6b7 c4bd 4652 363f 46b9 4e3f cf18 003e
00000040: 27bb c63d 4cf3 ad3e 5d8f 6b3f 0133 263c
00000050: 316f 08be 6414 393e 90f3 66bc 35bb 0d3f
00000060: f1af 003f 910e 793f 9c50 9f3e 5fe8 773f
00000070: 3f02 5a3d 4b45 ff3a 7272 0eb8 c55e 683d
00000080: 5a2b d0bd 816a 603d 5eb7 863f dab0 ef3e
00000090: d587 9b3d 765d 563f 0537 403e 2fe5 5fbd
000000a0: 5ccb 533e ee25 4a3f 22e7 223f e44d 333f
000000b0: d081 803f 98b0 55bd 5404 45bd a997 423e
000000c0: 8964 8a3f 5577 283f b803 a43e cca4 5f3f
000000d0: 2967 c53e 0d64 9a3d 4596 903f 1555 5dbd
000000e0: b7fd 6a3c 805d 093a eb72 1f3f aaf9 773f
000000f0: 4bc5 27bd 3368 e83b bb7b 4f3d 5942 7c3f
00000100: 647e cb3b a1d8 563e 505c 363f 09e0 823f
00000110: db9e 3f3e a98c b1bd a06a 883f 1bc0 523f
00000120: ee95 483f 376e 3b3f 7a89 703f 7ef2 023d
00000130: 807e 25bd e52e 47bb a67f 133f f6db 843d
00000140: 99d0 7d3f fc81 e23b 23b7 663f 1d0a c13c
00000150: d0d2 da3e eaee d3bd 8d74 47be e0e3 f53c
00000160: 42c7 823c d6dd e2bd 012f d83e fa5d d33c
00000170: cb51 943f 605c 173e 2983 4a3f df47 323c
00000180: 5c87 0abc 93fe 333f e3e2 533d 3706 8c3f
00000190: ed05 d63c 30ec a93e 2019 003f f0ef 453f
000001a0: 5f28 4d3b f3f7 3d3f 0b16 863f 04b6 7ebc
000001b0: af86 4b3f 8174 4abd 271b d93e ef3f 703f
000001c0: 29c1 48bb 6454 deba 6d88 9e3d df5c d83e
000001d0: b21c 6c3c 3c03 b3bd 5af4 adbb 187e 763f
000001e0: ff5b abbe 172b c1bd 6118 0d3d c724 023e
000001f0: 73d5 9f3d 41f9 773f 18a6 093d 8971 0f3e
00000200: facf 6cbc 9153 2f3d 4a25 3a3f c526 933f
00000210: fa4a 9e3f e57d 683e 6e73 5a3d 88ba 043f
00000220: fc3c 0e3f 64f9 f4bb 240a 9d3d 30ca 163f
00000230: fec1 88bc 03d9 843f 7c24 343b b19f 1cbd
00000240: d456 2b3d 86ad 5b3f e9f1 4f3f 2034 fc3c
00000250: 0a07 36bd d267 173c e5d1 5d3f c2cf 81bc
00000260: 9d6e 233f 6527 4c3f 0160 973d 2328 6a3c
00000270: fbc5 6cbd 6e44 5c3e 0c5d 6a3f c165 173d
00000280: bda5 1a3f c359 fd3e f390 443f 1ce1 0e3f
00000290: 7d3b d03d 0aa9 af3e bc31 453f 5301 8f3f
000002a0: 11d4 233b e40e 463f 83a3 973e ebc3 293f
000002b0: 2daf 9ebc 76c3 eebc 4608 953f 7c16 8d3f
000002c0: 2369 053e 7e85 4b3f 828e eabd abdf 903f
000002d0: 6b0b 483f 4b95 dc3e 5db5 213d 478e 8e3f
000002e0: 3223 d93d f973 6b3e b2c4 383f 3b50 9cbd
000002f0: b84a 313f a754 903f 2d8f 6c3b 7299 883f
00000300: 511e 12bf aad2 c83c 6a41 1abe 160a 09bd
00000310: 30cd 3b3f 3169 443f 7779 7c3f 2932 d2bd
00000320: 9afa 9f3f b2e2 2cbb c8f6 293e 79fc 8a3d
00000330: 06a4 a6bb bc40 603d f9b0 273f ae62 f93e
00000340: 8fc6 703f 01aa c43c 6b28 af3e 5679 efbb
00000350: 2ce2 633f d76d 813f 7ce3 133d 727b 3e3f
00000360: c81a 103d bcfc 60bd fa10 d1bc f611 2a3f
00000370: 0bad 863f db87 773f b222 bdbe bd28 533f
00000380: c439 623f d3ca 383f b71b ef3e 1191 d53d
00000390: 1a2d 6c3e 7565 713f 3be4 17bd e076 84bd
000003a0: 0204 8abc 13da 1d3e 301b 293f 7f72 0f3f
000003b0: 4756 2f3f 019c fabd 9d56 603f 104b 9e3f
000003c0: cbd2 5d3f 7bec 143f 3adf 513f d98f 5b3e
000003d0: df7a 343b cae3 5a3f 0d67 a13e cf60 613c
000003e0: 916f ef3e e4f6 883f d45c 893f dca2 e0bc
000003f0: 9bf8 90bc a496 5d3e ff39 853c d955 5c3f
-0.051488217 -0.08967939 0.56064767 0.5136609 0.12147973 1.0644821 -0.0993471 0.85786706
0.04764743 -0.018261706 0.06866075 0.030666828 -0.096053526 0.7121929 0.80751455 0.12509464
0.09703665 0.33974683 0.9201563 0.010143996 -0.13323666 0.18074185 -0.014096156 0.5536378
0.50268465 0.9728785 0.31116188 0.96838945 0.0532248 0.0019475607 -3.3962024e-05 0.056731004
-0.10164519 0.05478907 1.0524709 0.46814615 0.07594267 0.8373636 0.18770988 -0.054661926
0.20683044 0.78964126 0.6363393 0.70040727 1.0039616 -0.052170366 -0.04809983 0.19003166
1.0811931 0.65807086 0.32034087 0.87360835 0.38555267 0.075386144 1.1295859 -0.05403622
0.014342717 0.0005240068 0.62284726 0.9686533 -0.040959638 0.0070924996 0.050655108 0.9853874
0.0062101353 0.20981075 0.7123461 1.022462 0.18712942 -0.08669407 1.0657539 0.8232438
0.78353775 0.7321505 0.9395977 0.03196954 -0.040403843 -0.0030392942 0.5761665 0.06487267
0.9914642 0.006912468 0.90123194 0.023564393 0.42738962 -0.103483036 -0.19478054 0.030015886
0.015964154 -0.11077468 0.4222336 0.025801647 1.1587461 0.14781332 0.79106385 0.010881393
-0.008455124 0.70310324 0.051730048 1.0939397 0.026125873 0.3318801 0.5003834 0.7731924
0.003130458 0.74206465 1.0475477 -0.015546326 0.79502386 -0.049427513 0.42403528 0.93847555
-0.003063271 -0.0016962406 0.07740865 0.42258355 0.014411138 -0.08740851 -0.00530867 0.96286154
-0.33468625 -0.09432047 0.034447078 0.12709342 0.07804384 0.96864706 0.033605665 0.14008154
-0.014453882 0.042804305 0.7271315 1.1496207 1.2366631 0.22704275 0.05333274 0.51847124
0.55561805 -0.0074760187 0.0766795 0.58902264 -0.016694065 1.0378727 0.0027487567 -0.03823823
0.041830853 0.8581165 0.812285 0.030786574 -0.044440307 0.009241061 0.866484 -0.015846137
0.6384066 0.7974761 0.07391358 0.014291796 -0.057805996 0.21510479 0.9154823 0.036962274
0.60409147 0.49482545 0.76783675 0.5581224 0.101675965 0.34308654 0.77029014 1.1172279
0.0024998228 0.7736647 0.29616937 0.6631457 -0.01937064 -0.029145937 1.164315 1.1022487
0.13028388 0.7950057 -0.114529625 1.1318258 0.7814242 0.43082651 0.039479602 1.113717
0.10602416 0.22993459 0.72175133 -0.0763249 0.69254637 1.1275834 0.0036096082 1.0671828
-0.5707751 0.024514515 -0.15064016 -0.033456884 0.73359966 0.7672301 0.9862284 -0.102634735
1.2498353 -0.0026380238 0.16598046 0.067864366 -0.005085471 0.054749236 0.65504414 0.487081
0.94052976 0.024006845 0.34210524 -0.0073081655 0.89016986 1.0111645 0.036105618 0.7440711
0.03518179 -0.054928526 -0.02552079 0.66433656 1.0521559 0.96691674 -0.36940533 0.82484037
0.88369393 0.72184485 0.46700832 0.1042806 0.2306408 0.94295436 -0.037082892 -0.06467986
-0.016847614 0.1541522 0.6605711 0.5603408 0.68491024 -0.12236787 0.8763216 1.2366657
0.8664977 0.5817334 0.8198124 0.21441592 0.0027539057 0.8550383 0.31523934 0.013755991
0.46764806 1.0700345 1.0731454 -0.027421407 -0.01769667 0.21639496 0.016263006 0.86068493
